best_model.pth (torch, 92086 bytes, 100 tensors)

embed.linear.weight f4 [16, 16]
-0.034936447 0.08522897 -0.028830089 0.058919612 -0.046466563 -0.024384813 -0.06883571 1.08200575e-05
-0.027662745 0.003257099 -0.07804409 0.03466135 0.077217154 -0.04122759 0.05389162 -0.03611744
0.012235898 0.038615897 0.03766945 0.015202516 -0.012436468 -0.041738637 0.054412283 -0.016263217
-0.024927078 0.058854215 -0.054385282 -0.032471787 0.024551935 0.042926207 0.04536032 -0.045992944
0.043263376 -0.03676328 0.16611405 0.0041749175 0.011092373 -0.14400168 0.07601079 -0.06883463
0.085359596 0.06265784 -0.0029625355 -0.072762094 -0.055318452 -0.012677424 0.08409292 -0.03132811
-0.046120707 0.13046888 0.0520566 0.025793873 -0.08314201 -0.025380822 -0.1157067 -0.019659467
-0.03886786 0.063992 -0.061964106 -0.04942788 0.061020304 -0.036700167 0.02414987 0.044829626
0.11500561 0.14012446 -0.05887574 0.011684645 -0.053025253 -0.12277917 -0.024031619 0.07928017
-0.060376212 0.033959378 -0.12075693 0.02368413 -0.05765971 -0.06550872 0.20759504 -0.061179366
-0.035167255 -0.2069777 0.08208715 -0.051480185 0.2544023 0.09617071 -0.019650107 -0.12647475
-0.21966267 0.07171572 0.171442 0.05180724 0.10488083 0.082872555 -0.21990736 -0.050186265
-0.17684732 0.20368007 0.0785793 0.05840232 0.037462354 0.043106586 -0.12371195 -0.09651987
-0.1307241 0.24332686 0.10289698 -0.086101554 0.01662462 -0.15397137 0.055475187 0.021642573
0.10156562 -0.02199979 -0.13448237 -0.06671086 -0.0113923345 0.1607211 0.18785208 -0.02980675
-0.09009984 -0.20002171 -0.08147423 0.011865183 0.17877135 0.078940496 0.10870217 -0.33341834
-0.12668903 -0.14307907 0.06511327 0.14875056 0.046394683 -0.038404778 -0.15809213 -0.13148654
0.06602079 -0.089479946 0.058252957 0.19850712 -0.005748329 -0.22809108 -0.05546893 -0.093306065
-0.043947555 0.061465424 -0.0021978337 0.052354965 0.032331944 -0.12940677 -0.04066626 -0.17062026
0.16412635 0.00707815 -0.035477392 -0.020629412 -0.03943061 -0.088248774 0.048073255 -0.03011039
0.08762075 0.09137656 -0.15950274 0.0442378 -0.14312397 0.089365825 -0.08007758 0.016939241
-0.033945095 -0.13731825 -0.12179209 -0.029188504 0.117077395 -0.054121785 0.23055035 -0.119035095
0.016762402 0.0069035543 0.0885769 0.12282938 -0.16900218 0.086802594 0.07026795 -0.08448961
0.097548395 0.053660203 -0.12120771 0.012439985 0.17742725 0.04578482 -0.11919619 0.00048580478
0.25288728 -0.038630027 0.1265063 -0.10885544 -0.04808754 -0.065356284 -0.04370739 0.16415876
-0.09954833 0.08076135 -0.1441017 -0.13524622 0.019491073 0.15431324 0.13876411 -0.06360353
0.1559373 -0.0873563 0.026654614 0.10937409 -0.019959852 0.1286875 -0.044828802 0.083793774
-0.15639517 0.10710311 -0.20839228 0.09995625 0.10735818 0.12795734 -0.061940357 0.040136855
0.021269394 0.16669738 0.13986099 0.054456815 -0.17326324 -0.15076862 0.0137759745 0.1341622
0.18972225 0.1276836 -0.08619591 -0.20271406 0.08223978 0.097722024 0.10767864 0.14383738
0.12392052 -0.009553254 0.10842081 0.061339036 -0.07404747 -0.115300946 -0.049117524 0.13143675
-0.0049383463 -0.14377712 0.0645945 -0.16578297 -0.037167948 -0.11746949 0.09843168 -0.043884438
00000000: 8519 0fbd 878c ae3d 142d ecbc b155 713d
00000010: b953 3ebd a9c2 c7bc bdf9 8cbd cb87 3537
00000020: fb9c e2bc 0e75 553b 94d5 9fbd 0ff9 0d3d
00000030: 0724 9e3d 43de 28bd 76bd 5c3d e1ef 13bd
00000040: 1379 483c b42b 1e3d 484b 1a3d f913 793c
00000050: 54c2 4bbc 22f6 2abd 6adf 5e3d 703a 85bc
00000060: df33 ccbc 1e11 713d 1ac3 5ebd 2301 05bd
00000070: 2421 c93c 64d3 2f3d becb 393d 1963 3cbd
00000080: f034 313d 1895 16bd cd19 2a3e bfcd 883b
00000090: c9bc 353c 2d75 13be 8cab 9b3d 2cf9 8cbd
000000a0: 03d1 ae3d c152 803d 1927 42bb 4b04 95bd
000000b0: 9a95 62bd f8b4 4fbc e938 ac3d e751 00bd
000000c0: 11e9 3cbd a299 053e 4d39 553d ac4d d33c
000000d0: 5c46 aabd 71eb cfbc a2f7 ecbd e40c a1bc
000000e0: e833 1fbd 3d0e 833d 13ce 7dbd e474 4abd
000000f0: 6df0 793d ea52 16bd f3d5 c53c 459f 373d
00000100: 1088 eb3d c97c 0f3e b027 71bd f470 3f3c
00000110: 0231 59bd a573 fbbd f5dd c4bc a45d a23d
00000120: 0c4d 77bd fd18 0b3d 694f f7bd 3805 c23c
00000130: 972c 6cbd 7029 86bd cb93 543e 3797 7abd
00000140: 8a0b 10bd f6f1 53be 4f1d a83d e3dc 52bd
00000150: 0541 823e 26f5 c43d 43f9 a0bc 9982 01be
00000160: 40ef 60be b1df 923d 7e8e 2f3e d433 543d
00000170: c3cb d63d 16b9 a93d 652f 61be 1d90 4dbd
00000180: 7717 35be 8291 503e 2fee a03d 4537 6f3d
00000190: 2072 193d 8890 303d b15c fdbd 36ac c5bd
000001a0: 8adc 05be ad2a 793e a7bb d23d 0356 b0bd
000001b0: 5b30 883c acaa 1dbe f339 633d c44b b13c
000001c0: a301 d03d e738 b4bc bfb5 09be b49f 88bd
000001d0: eaa6 3abc 1294 243e 4c5c 403e 492d f4bc
000001e0: 4486 b8bd 7ed2 4cbe f6db a6bd 2f66 423c
000001f0: d60f 373e 8eab a13d 3e9f de3d cfb5 aabe
00000200: c5ba 01be 5283 12be 1b5a 853d 1152 183e
00000210: 5a08 3e3d 544e 1dbd e7e2 21be 68a4 06be
00000220: e835 873d 4341 b7bd a79a 6e3d 7345 4b3e
00000230: 7b5c bcbb b590 69be 6433 63bd 4017 bfbd
00000240: 5a02 34bd 2bc3 7b3d 8809 10bb 2972 563d
00000250: 806e 043d 3583 04be aa91 26bd 14b7 2ebe
00000260: bd10 283e d3ef e73b be50 11bd 03ff a8bc
00000270: fe81 21bd c6bb b4bd 76e8 443d 11aa f6bc
00000280: 8272 b33d a223 bb3d b054 23be b232 353d
00000290: 178f 12be 6e05 b73d b7ff a3bd 2ac4 8a3c
000002a0: 030a 0bbd 289d 0cbe 226e f9bd bb1c efbc
000002b0: 46c6 ef3d ceae 5dbd 6415 6c3e acc8 f3bd
000002c0: 4e51 893c 3637 e23b ce67 b53d f88d fb3d
000002d0: e80e 2dbe 8fc5 b13d a5e8 8f3d e308 adbd
000002e0: 74c7 c73d cdca 5b3d bf3b f8bd 14d1 4b3c
000002f0: 7daf 353e dd88 3b3d 221d f4bd 9db3 fe39
00000300: 717a 813e 853a 1ebd de8a 013e 9aef debd
00000310: 71f7 44bd 84d9 85bd 8506 33bd 3c19 283e
00000320: ffdf cbbd 3566 a53d 658f 13be fc7d 0abe
00000330: beab 9f3c 4a04 1e3e 2e18 0e3e 9142 82bd
00000340: 07ae 1f3e dce7 b2bd c75a da3c 86ff df3d
00000350: d882 a3bc a8c6 033e 689e 37bd 129c ab3d
00000360: 0e26 20be e058 db3d c964 55be ddb5 cc3d
00000370: 9bde db3d 4007 033e 2cb5 7dbd 8b66 243d
00000380: 273d ae3c b8b2 2a3e b837 0f3e 1c0e 5f3d
00000390: eb6b 31be 1763 1abe a0b4 613c d161 093e
000003a0: 8d46 423e 7dbf 023e 7b87 b0bd 4694 4fbe
000003b0: 546d a83d 7c22 c83d 9e86 dc3d 1b4a 133e
000003c0: 0bca fd3d 4085 1cbc bb0b de3d a43e 7b3d
000003d0: 33a6 97bd e722 ecbd 752f 49bd 5b97 063e
000003e0: dad1 a1bb 4f3a 13be 1f4a 843d 03c3 29be
000003f0: 6b3d 18bd d893 f0bd 8c96 c93d 2bc0 33bd

embed.linear.bias f4 [16]
0.32183656 0.2237312 -0.288875 0.15629424 -0.17548162 -0.1779644 -0.016361175 -0.38009828
0.10860173 0.2022728 -0.00050916173 -0.079937756 -0.077758566 0.0800616 0.32990775 -0.039611198
00000000: c3c7 a43e cb19 653e 6de7 93be 990b 203e
00000010: 74b1 33be 4d3c 36be df07 86bc 3e9c c2be
00000020: 956a de3d 9a20 4f3e 4479 05ba 68b6 a3bd
00000030: e23f 9fbd 56f7 a33d abe9 a83e 5a3f 22bd

layers.0.self_attn.in_proj_weight f4 [48, 16]
-0.27377886 0.4747501 -0.1917157 0.49144104 0.16056265 0.08082166 0.14979213 -0.23070712
-0.2517557 0.13977043 0.39154884 0.14270002 0.29245105 0.24834791 -0.12954381 -0.23371123
-0.30194965 0.45800382 0.061566796 0.14828895 -0.24552351 -0.22325052 0.2380198 -0.10259181
0.0826808 0.090018615 0.110480785 -0.20935446 -0.28335688 0.0029026447 0.15260993 0.18438117
0.024737645 0.2398058 -0.30817872 -0.22240117 -0.2672446 -0.24463344 -0.0032748433 -0.05674922
-0.12947707 -0.26530477 0.25109324 -0.25408998 -0.0036694994 -0.1761466 -0.21672457 0.24653406
-0.6297248 0.5115552 -0.05969822 0.094556026 -0.26169324 0.1754157 0.1986924 0.044883467
0.24274413 -0.015689299 -0.2010017 -0.14389668 0.08729073 0.25613108 0.036249854 0.41440144
0.48546174 0.031094046 -0.09701093 -0.13761082 0.05587306 0.0041153035 -0.23939933 -0.0152113
0.23755015 0.024689514 -0.19261152 -0.14438772 0.06182929 0.24253248 -0.08805528 -0.25637215
-0.08141382 0.0863364 0.17226523 -0.22137462 -0.32679898 0.21571371 0.22480394 -0.2712522
0.041966368 0.13639602 -0.15248097 0.027986238 0.15337178 -0.1303303 0.058817275 0.060038917
-0.1351638 0.07943937 0.42753667 -0.11304589 0.17170207 0.24723002 -0.30223733 0.13890667
0.099090375 -0.2216204 -0.019394942 -0.19046284 0.061043143 0.056391094 -0.34289497 -0.35291252
0.6723036 0.16924948 -0.3347874 0.06493892 -0.09858721 -0.015878743 -0.35180703 -0.016059387
-0.15353397 0.14113931 -0.018139804 0.100820534 0.27982906 -0.28445822 0.32895607 0.34388536
0.07431182 -0.49181274 -0.14043894 -0.35416132 0.41323394 0.23699856 0.2023058 -0.07252118
-0.0036343664 -0.22151643 -0.23129472 0.00054458977 -0.015661417 0.0633963 -0.14106104 0.010082987
0.34227714 0.28603646 0.32131365 -0.25427172 0.4720071 0.2101598 -0.46282756 0.2843386
-0.40128732 0.18060586 -0.023185553 0.062674046 -0.12445449 -0.1524919 0.12727512 -0.06901428
0.31639606 0.0022027139 0.025520522 -0.3617716 0.10739752 0.23092438 0.0017677558 -0.017674662
-0.30448058 -0.2652832 -0.103930235 0.30212617 0.2495051 0.1646691 0.1121929 0.1796235
0.20740859 0.048908707 -0.13540445 -0.12721495 -0.29059052 0.03158213 -0.48341185 0.36962253
0.1932761 0.063325755 0.29612297 0.1667097 0.16247806 0.20712724 0.0933245 -0.24921282
-0.034298833 -0.30931464 0.28366143 0.17071366 -0.08843288 0.022266872 0.08521413 -0.314059
-0.103044845 0.20611471 -0.09279065 -0.046582874 -0.10630088 -0.05194892 -0.051688958 -0.2542762
0.15129352 -0.4142491 0.19992395 0.33219585 -0.1449435 -0.29025343 0.18807325 0.2182558
-0.46125355 -0.30450523 0.21669598 -0.21726869 0.14629173 -0.23490596 0.089486934 0.27516264
0.4924442 -0.29106122 -0.25218594 0.12460226 -0.22137704 -0.19084907 0.014850208 0.17088988
-0.30444592 0.052143767 -0.019474654 0.08020434 0.06724762 0.14633869 0.06730377 -0.21682861
0.40625545 0.29095674 0.12506692 -0.31154284 0.2602248 -0.06817329 -0.056120124 -0.032282468
0.194236 -0.15571363 -0.2092067 0.20991836 0.08984175 0.16850202 0.1599522 0.02788189
00000000: be2c 8cbe 7212 f33e 1f51 44be 299e fb3e
00000010: 896a 243e d485 a53d 1c63 193e 7d3e 6cbe
00000020: 20e6 80be fb1f 0f3e 1779 c83e f41f 123e
00000030: 25bc 953e ea4e 7e3e 22a7 04be ff51 6fbe
00000040: 2599 9abe 7a7f ea3e 772d 7c3d 0fd9 173e
00000050: 846a 7bbe c99b 64be 76bb 733e a81b d2bd
00000060: 8d54 a93d ae5b b83d c043 e23d 0461 56be
00000070: 2714 91be 4c3a 3e3b c745 1c3e 6bce 3c3e
00000080: 9aa6 ca3c a78f 753e 9ac9 9dbe 22bd 63be
00000090: 49d4 88be 3081 7abe c19e 56bb df71 68bd
000000a0: a395 04be 07d6 87be 4b8f 803e 1518 82be
000000b0: fc7b 70bb c65f 34be 0ced 5dbe 6d73 7c3e
000000c0: a535 21bf 48f5 023f 1f86 74bd 97a6 c13d
000000d0: a8fc 85be 2ca0 333e 0576 4b3e bad7 373d
000000e0: eb91 783e d886 80bc 64d3 4dbe a759 13be
000000f0: 7bc5 b23d 9d23 833e ba7a 143d 6d2c d43e
00000100: 718e f83e f1b8 fe3c abad c6bd dae9 0cbe
00000110: 26db 643d abd9 863b 1925 75be d138 79bc
00000120: 5940 733e aa41 ca3c f43b 45be 60da 13be
00000130: b640 7d3d 6f5a 783e 5456 b4bd 3643 83be
00000140: 4abc a6bd 23d1 b03d 4c66 303e 07b0 62be
00000150: 3252 a7be 0ee4 5c3e 0133 663e 91e1 8abe
00000160: ede4 2b3d 66ab 0b3e f923 1cbe 6543 e53c
00000170: 7e0d 1d3e 4e75 05be 62ea 703d 5eeb 753d
00000180: 6168 0abe 1cb1 a23d 16e6 da3e 9b84 e7bd
00000190: abd2 2f3e de29 7d3e dabe 9abe 8d3d 0e3e
000001a0: e5ef ca3d 75f0 62be 24e2 9ebc b108 43be
000001b0: 6008 7a3d 59fa 663d ee8f afbe f3b0 b4be
000001c0: 171c 2c3f bc4f 2d3e 4169 abbe b2fe 843d
000001d0: 17e8 c9bd 2314 82bc 0d20 b4be fa8e 83bc
000001e0: 0238 1dbe d386 103e ed99 94bc ff7a ce3d
000001f0: c145 8f3e 82a4 91be ee6c a83e be11 b03e
00000200: cc30 983d e1ce fbbe 3acf 0fbe a254 b5be
00000210: 6693 d33e c0af 723e 4029 4f3e fc85 94bd
00000220: 8d2e 6ebb 34d5 62be 86d8 6cbe cdc2 0e3a
00000230: 5f4c 80bc ebd5 813d 4e72 10be 1d33 253c
00000240: f33e af3e 5f73 923e 3983 a43e e72f 82be
00000250: eaaa f13e 2134 573e bcf7 ecbe d494 913e
00000260: 8875 cdbe bef0 383e a1ef bdbc 405b 803d
00000270: ffe1 febd d626 1cbe 6954 023e 5c57 8dbd
00000280: aafe a13e 685b 103b 6a10 d13c 213a b9be
00000290: 3bf3 db3d 7177 6c3e 0bb4 e73a 74ca 90bc
000002a0: e1e4 9bbe 33d3 87be 60d9 d4bd 48b0 9a3e
000002b0: 447e 7f3e 049f 283e 64c5 e53d 39ef 373e
000002c0: eb62 543e 7f54 483d 77a7 0abe a344 02be
000002d0: 48c8 94be 435c 013d c281 f7be 2a3f bd3e
000002e0: 2cea 453e efb0 813d 6e9d 973e f3b5 2a3e
000002f0: a660 263e 2a19 543e ea20 bf3d a531 7fbe
00000300: ef7c 0cbd 7d5e 9ebe 123c 913e 90cf 2e3e
00000310: 4c1c b5bd 0469 b63c bf84 ae3d 57cc a0be
00000320: 2d09 d3bd bc0f 533e 0609 bebd afcd 3ebd
00000330: 47b4 d9bd 64c8 54bd cdb7 53bd 7d30 82be
00000340: b0ec 1a3e 7518 d4be ddb8 4c3e 9315 aa3e
00000350: 126c 14be 199c 94be 4696 403e 737e 5f3e
00000360: 6d29 ecbe 1ce8 9bbe 8de5 5d3e af7b 5ebe
00000370: 80cd 153e 308b 70be ed44 b73d 1ee2 8c3e
00000380: a521 fc3e fa05 95be 841e 81be 782f ff3d
00000390: aab0 62be f06d 43be 494e 733c c2fd 2e3e
000003a0: 56e0 9bbe b494 553d 4f89 9fbc 2c42 a43d
000003b0: 1fb9 893d cfd9 153e 8fd6 893d 5208 5ebe
000003c0: b700 d03e 48f8 943e 8b11 003e 8b82 9fbe
000003d0: 2f3c 853e 709e 8bbd 37de 65bd 9f3a 04bd
000003e0: cde5 463e 6573 1fbe 483a 56be d7f4 563e
000003f0: f4fe b73d cb8b 2c3e 82ca 233e 9068 e43c

layers.0.self_attn.in_proj_bias f4 [48]
-0.008244479 -0.051149774 -0.07724665 0.16683516 -0.043796957 -0.028498689 -0.042099494 -1.0059423e-05
0.067038305 0.051637013 -0.026682915 -0.05136515 -0.032312974 -0.09009946 0.11256523 0.067272745
0.0009291396 -0.0001932787 0.00067785755 -0.00021479567 -0.0006333995 0.0001654122 -0.00010240199 3.951173e-05
-0.0006841232 0.0017497368 0.0003741557 0.005085194 0.00044784287 0.00015972219 -6.718615e-05 0.0011144225
-0.0446095 -0.010587693 -0.0056818966 0.01718739 0.058229912 0.016711928 -0.04612165 0.024310274
-0.012993739 0.105540566 0.056849107 -0.009226837 -0.029487314 -0.020232406 0.0216466 0.018583909
00000000: da13 07bc 6d82 51bd 7e33 9ebd d6d6 2a3e
00000010: 7064 33bd 1576 e9bc 8570 2cbd e5c4 28b7
00000020: 614b 893d 5581 533d 2196 dabc 4364 52bd
00000030: 9c5a 04bd 1186 b8bd 9988 e63d 4bc6 893d
00000040: 8191 733a dbaa 4ab9 40b2 313a c63a 61b9
00000050: b90a 26ba 8072 2d39 a6c0 d6b8 66b9 2538
00000060: bb56 33ba 6d57 e53a 542a c439 b3a1 a63b
00000070: 74cc ea39 197b 2739 4ae6 8cb8 d011 923a
00000080: 73b8 36bd 0178 2dbc 342f babb 92cc 8c3c
00000090: 7d82 6e3d 74e7 883c 0eea 3cbd 5726 c73c
000000a0: b1e3 54bc a725 d83d 9cda 683d 292c 17bc
000000b0: 618f f1bc 6ebe a5bc 3654 b13c 483d 983c

layers.0.self_attn.out_proj.weight f4 [16, 16]
0.06881086 0.093575224 -0.09140846 0.042681947 0.03577725 -0.13595107 -0.0061063557 -0.1688594
-0.11022629 0.011978897 -0.032315418 -0.07440197 -0.07596373 -0.07411229 -0.036498964 -0.078436576
-0.027949113 -0.08701849 -0.013138787 0.13193147 0.0041126325 -0.22348359 -0.04401389 -0.24235755
0.1456713 0.0935576 0.008738702 -0.00496554 -0.026735611 0.032847818 -0.024340102 0.0035297675
-0.17103323 -0.05263939 0.011972733 0.022270054 -0.028522866 -0.15026379 -0.1849956 0.1145882
-0.07635481 -0.18645814 0.01848011 -0.19596988 -0.12280213 -0.15525278 -0.16594774 0.073786736
0.07758359 -0.17145506 -0.21082464 0.04874843 0.039170478 0.13756669 -0.038372345 -0.13476469
-0.030243738 -0.039613422 -0.14442562 0.09135245 0.070495136 -0.1888044 0.05186959 0.025575161
-0.17862307 0.07399107 0.26559326 0.05589066 0.021276066 -0.051079113 0.13421607 0.07339749
-0.38988438 0.10638871 -0.18409713 -0.13925761 -0.1328057 -0.030458318 -0.21005327 0.100832865
-0.075125895 0.08251222 -0.11042544 7.356015e-05 -0.09399904 -0.025087943 -0.26574713 -0.10201198
-0.018955205 -0.106228 0.021597907 0.08197838 0.06435892 -0.10715232 -0.015107778 -0.1844748
0.0860285 0.23556031 -0.28845704 0.12228382 -0.05613989 0.0070549306 0.023134317 0.36085856
-0.014577931 -0.18390395 0.19645211 -0.020431735 -0.15424974 0.18303362 -0.18449543 0.24997233
-0.1435944 0.16399145 0.17260541 0.05378693 -0.051292825 -0.092087135 -0.109579004 -0.029131927
-0.22129756 0.19239768 0.08303494 -0.06902597 0.1969713 0.20969406 0.16542932 -0.027565109
0.20941687 0.082385875 -0.16333297 0.20877314 0.117942564 0.10939994 -0.0038301346 -0.0023861227
-0.068889245 0.041587185 -0.12778625 -0.05670954 -0.056808412 -0.047140714 -0.27203348 -0.1269302
0.111182846 -0.2619553 -0.0954953 -0.02362092 -0.10060488 -0.0213464 0.1990057 -0.07476666
0.09591192 0.0040454785 -0.112945236 0.053308845 0.15176225 0.014070452 -0.2351911 0.05012036
-0.0493422 -0.002066042 0.11258939 -0.33861083 0.06865935 -0.18282327 -0.044880725 0.13670428
-0.1695954 0.1126729 0.07253749 0.046933055 -0.051966902 0.11592509 0.13036713 0.01241144
0.113196254 0.071045116 0.15566571 -0.28066882 -0.045289885 0.037551556 -0.28235626 0.24447452
0.20536245 -0.03428933 -0.111375645 -0.048248973 -0.22802538 -0.41037917 -0.2217297 -0.13195632
-0.12901913 -0.048003763 0.11966075 -0.44590223 0.056743104 -0.18506265 -0.05844616 -0.02852122
-0.012464554 -0.0886677 0.12959808 0.094857104 -0.12407054 -0.22625023 -0.010003761 -0.028617466
-0.07000085 -0.0688876 0.37077057 0.1174652 0.11030146 0.030461606 0.117550574 0.035649613
0.059417833 0.22572535 -0.041991513 -0.0041610827 0.026158903 0.17730549 -0.050666783 0.037119534
0.08085523 0.028202046 -0.08647168 0.16867286 0.023157317 0.1117738 0.045988675 -0.022545356
-0.03366641 0.08013971 -0.07334792 0.008222791 0.12015564 -0.18502606 0.13896215 0.21279927
0.23309804 -0.48096958 0.22485228 0.0040825503 0.072521694 0.122774966 -0.008439476 -0.08493837
0.25640026 -0.10348774 0.10268654 0.0035209819 -0.1450377 0.012816212 -0.12266323 0.049395993
00000000: b5ec 8c3d 5ea4 bf3d 5c34 bbbd 44d3 2e3d
00000010: 2a8b 123d c236 0bbe d317 c8bb 7be9 2cbe
00000020: 52be e1bd 2343 443c 2c5d 04bd 0f60 98bd
00000030: df92 9bbd 2fc8 97bd f07f 15bd 5ba3 a0bd
00000040: 8af5 e4bc c036 b2bd 1144 57bc 0b19 073e
00000050: 43c3 863b e2d8 64be e947 34bd 942c 78be
00000060: db2a 153e 219b bf3d c62c 0f3c f8b5 a2bb
00000070: a404 dbbc 6f8b 063d e564 c7bc ac53 673b
00000080: 5623 2fbe 679c 57bd 4829 443c b06f b63c
00000090: c9a8 e9bc c0de 19be 7d6f 3dbe 38ad ea3d
000000a0: e95f 9cbd e2ee 3ebe 9a63 973c 54ac 48be
000000b0: af7f fbbd 96fa 1ebe 34ee 29be 801d 973d
000000c0: 25e4 9e3d ea91 2fbe 6ae2 57be 6fac 473d
000000d0: 3971 203d 48de 0c3e 522c 1dbd c1ff 09be
000000e0: b7c1 f7bc af41 22bd 4fe4 13be fe16 bb3d
000000f0: c15f 903d f155 41be 3575 543d 0083 d13c
00000100: f7e8 36be a188 973d d7fb 873e 9bed 643d
00000110: 254b ae3c 5538 51bd f06f 093e 6c51 963d
00000120: ed9e c7be 53e2 d93d f583 3cbe 8c99 0ebe
00000130: 38fe 07be b983 f9bc 3418 57be 7681 ce3d
00000140: 9bdb 99bd 2bfc a83d bc26 e2bd 4e44 9a38
00000150: 9282 c0bd 3b85 cdbc 0210 88be a8eb d0bd
00000160: f247 9bbc 118e d9bd 18ee b03c 48e4 a73d
00000170: 9cce 833d ad72 dbbd 9d86 77bc f6e6 3cbe
00000180: b62f b03d b936 713e a4b0 93be f06f fa3d
00000190: f1f2 65bd 0c2d e73b 2e84 bd3c 74c2 b83e
000001a0: 46d8 6ebc 5151 3cbe be2a 493e 7460 a7bc
000001b0: a5f3 1dbe 2a6d 3b3e 5fec 3cbe bff8 7f3e
000001c0: 690a 13be 60ed 273e 79bf 303e af4f 5c3d
000001d0: 6d18 52bd 2e98 bcbd f56a e0bd 14a6 eebc
000001e0: d49b 62be e603 453e 390e aa3d 7d5d 8dbd
000001f0: d8b2 493e 0aba 563e 4e66 293e 39d0 e1bc
00000200: 6071 563e edb9 a83d c240 27be a0c8 553e
00000210: df8b f13d 130d e03d ff02 7bbb 7f60 1cbb
00000220: ce15 8dbd 5357 2a3d 66da 02be 4348 68bd
00000230: f0af 68bd 9f16 41bd f947 8bbe fef9 01be
00000240: d5b3 e33d 011f 86be 0a93 c3bd a980 c1bc
00000250: ee09 cebd a5de aebc 26c8 4b3e 431f 99bd
00000260: 786d c43d ef8f 843b d54f e7bd 605a 5a3d
00000270: 9067 1b3e c187 663c f0d5 70be 024b 4d3d
00000280: 0c1b 4abd 6f66 07bb 4495 e63d 665e adbe
00000290: 469d 8c3d 0636 3bbe dad4 37bd 35fc 0b3e
000002a0: 6baa 2dbe 0dc1 e63d 898e 943d e03c 403d
000002b0: 3fdb 54bd 226a ed3d f67e 053e 5a59 4b3c
000002c0: 70d3 e73d 1a80 913d d566 1f3e d3b3 8fbe
000002d0: e381 39bd a9cf 193d 0091 90be 8757 7a3e
000002e0: 894a 523e f872 0cbd ea18 e4bd b7a0 45bd
000002f0: 7c7f 69be 381d d2be 1c0d 63be 8f1f 07be
00000300: 971d 04be 989f 44bd b210 f53d 4c4d e4be
00000310: 756b 683d 1081 3dbe 3e65 6fbd 55a5 e9bc
00000320: 2138 4cbc 6997 b5bd 5cb5 043e 7144 c23d
00000330: b218 febd 24ae 67be d1e6 23bc 2d6f eabc
00000340: 9b5c 8fbd f114 8dbd a4d5 bd3e 9891 f03d
00000350: bbe5 e13d 9e8a f93c 5bbe f03d 5405 123d
00000360: 1d60 733d 8c24 673e 4bff 2bbd b159 88bb
00000370: 324b d63c 928f 353e f987 4fbd a70a 183d
00000380: 6d97 a53d fa07 e73c 1018 b1bd 94b8 2c3e
00000390: 6ab4 bd3c a9e9 e43d 9f5e 3c3d 0ab1 b8bc
000003a0: cae5 09bd 4a20 a43d 6f37 96bd e3b8 063c
000003b0: 2914 f63d 7977 3dbe 184c 0e3e 0de8 593e
000003c0: 41b1 6e3e a541 f6be ad3f 663e eac6 853b
000003d0: 4186 943d 7171 fb3d ba45 0abc 2bf4 adbd
000003e0: e546 833e 61f1 d3bd 524d d23d 46c0 663b
000003f0: c384 14be 17fb 513c dc36 fbbd 7453 4a3d

layers.0.self_attn.out_proj.bias f4 [16]
0.020792065 0.022788722 -0.004838576 0.0010334154 0.030289544 -0.01649006 -0.0185246 0.020989107
0.007058318 0.018575573 0.021335488 0.049342453 -0.0068862224 0.036553744 0.033828262 0.024044303
00000000: 1f54 aa3c 6aaf ba3c eb8c 9ebb ab73 873a
00000010: c721 f83c 2a16 87bc e7c0 97bc 59f1 ab3c
00000020: 7649 e73b cd2b 983c c3c7 ae3c 501b 4a3d
00000030: d2a5 e1bb 61b9 153d 818f 0a3d 8ff8 c43c

layers.0.linear1.weight f4 [16, 16]
-0.08641531 0.026600072 -0.09502451 -0.13543728 -0.00537987 0.049478326 0.13052261 -0.060456775
0.2613027 -0.16549349 -0.04308928 0.064372726 0.0864558 -0.09970515 -0.10210469 0.091378815
0.1601689 -0.16335253 -0.095878825 0.25205982 0.2777892 0.25875843 0.07363488 0.17097148
-0.116958804 0.044781085 0.0946712 0.038111348 -0.09817392 -0.17118707 -0.05095292 0.07739848
0.26997337 0.11818013 0.24416906 -0.15595451 -0.028679794 0.04876922 0.088921055 -0.09923978
0.013364634 -0.26682603 0.018655945 0.065885864 0.15181798 0.2603753 0.007049343 -0.24050406
0.13360314 0.2506014 0.14642555 -0.27241775 0.2882483 0.1422915 -0.1560408 -0.29736984
-0.0055727325 -0.14858973 0.03968936 -0.2270587 0.1824845 0.026491938 -0.08082506 0.09695805
0.47606498 -0.14607984 0.12072062 -0.005956337 0.09601795 0.12962288 -0.12624888 -0.176532
0.022259325 -0.04274885 0.07702451 0.12098094 0.24388063 -0.048753507 -0.09536999 -0.084023
0.4777778 -0.06110144 0.18276839 -0.015804071 0.08670772 -0.102372095 0.13025206 0.053533528
0.08024226 -0.117726274 -0.019798303 -0.008880656 0.15304773 -0.026442673 -0.046590105 -0.10679129
0.2849922 -0.09369984 -0.03862855 -0.12990299 -0.15437734 -0.048732378 0.24259524 0.08358366
0.06106099 0.12559064 0.16037732 0.08362468 0.1511882 0.115657724 0.063376814 0.012217495
0.024581093 0.43474916 0.05863498 -0.2507207 0.14543277 0.08201687 0.025804017 -0.06260646
0.049550723 0.01733949 0.163612 -0.06038085 -0.045848344 -0.08936762 0.08809247 -0.06969159
0.3166804 0.06857515 -0.029706776 -0.18625166 0.32977378 -0.23041148 0.07208982 -8.467299e-05
0.16318935 -0.29451498 0.33352336 0.121320836 0.12961398 -0.11409636 0.05949558 -0.05530812
-0.06402214 0.21207143 0.10647717 0.35115543 0.082392804 0.047561504 -0.00849504 0.0076683396
-0.20747454 0.1012482 0.28520182 -0.09097265 0.023537667 -0.08924385 -0.16591503 -0.11281016
-0.34953105 0.082961194 0.12404226 -0.30185825 0.22258514 0.12648757 -0.049970623 -0.102729745
0.14939497 0.053147994 0.03869484 -0.1831503 0.20243388 -0.114818156 -0.01382805 -0.20452352
0.26749295 -0.19405477 -0.006259197 0.17174104 -0.11088542 -0.015879562 -0.07283945 -0.07771565
-0.10708193 -0.14266029 -0.07508342 -0.32495865 0.12076998 -0.15767059 -0.19354893 -0.20772026
-0.08661221 -0.4075225 0.159185 0.2571148 0.3253386 0.18560994 -0.11132927 -0.1643796
0.122677766 -0.28148103 0.00033991568 0.090361245 0.24476558 -0.27238387 -0.04112331 -0.106381305
-0.3081726 0.3344707 0.077867515 0.120007806 0.1404191 -0.09137868 0.08688813 0.016028695
0.12012796 0.006337722 0.3078729 0.18031491 0.2622627 -0.056274507 0.11363158 0.030027505
-0.15144491 0.19003704 -0.27873924 0.08996111 0.21722873 -0.037356533 -0.00097371516 0.056492034
-0.06812559 -0.050994214 0.29384467 0.107800715 0.31424055 -0.34194392 -0.08101507 -0.14954431
0.17585458 0.007024307 -0.25909618 0.26423752 0.06871723 -0.05557941 0.3480235 0.07040516
0.20836116 -0.18256459 0.25626472 -0.08157447 -0.04853397 0.021918485 0.0025399365 -0.24905404
00000000: 83fa b0bd 65e8 d93c 369c c2bd 12b0 0abe
00000010: 9f49 b0bb c9a9 4a3d b8a7 053e 86a1 77bd
00000020: 78c9 853e 2077 29be 637e 30bd d9d5 833d
00000030: bd0f b13d 3732 ccbd 441c d1bd d124 bb3d
00000040: 5103 243e e345 27be 1e5c c4bd fc0d 813e
00000050: 633a 8e3e fc7b 843e e2cd 963d 2613 2f3e
00000060: 1988 efbd 5f6c 373d f9e2 c13d a51a 1c3d
00000070: 680f c9bd aa4b 2fbe 02b4 50bd 1883 9e3d
00000080: f339 8a3e 6d08 f23d 7407 7a3e 8ab2 1fbe
00000090: e3f1 eabc 3cc2 473d 3e1c b63d 3a3e cbbd
000000a0: 56f7 5a3c 6c9d 88be 5ad4 983c 2bef 863d
000000b0: 2c76 1b3e e94f 853e 2dfe e63b b246 76be
000000c0: 43cf 083e d44e 803e 94f0 153e 577a 8bbe
000000d0: 4895 933e ddb4 113e 29c9 1fbe dc40 98be
000000e0: 789b b6bb e827 18be 4f91 223d 1382 68be
000000f0: 37dd 3a3e 9f05 d93c 9c87 a5bd f191 c63d
00000100: cabe f33e f495 15be 5f3c f73d 602d c3bb
00000110: 0fa5 c43d dcbb 043e 6347 01be cec4 34be
00000120: 3059 b63c 6b19 2fbd 07bf 9d3d dbc4 f73d
00000130: d8bb 793e c2b1 47bd 5751 c3bd 4014 acbd
00000140: 4b9f f43e 8145 7abd a327 3b3e 8a77 81bc
00000150: d193 b13d 76a8 d1bd cc60 053e f945 5b3d
00000160: 0e56 a43d 791a f1bd 0d30 a2bc 2c80 11bc
00000170: 8bb8 1c3e 4e9e d8bc 44d5 3ebd 64b5 dabd
00000180: 7fea 913e b4e5 bfbd f838 1ebd 4a05 05be
00000190: 1815 1ebe 9a9b 47bd e36a 783e e92d ab3d
000001a0: 171b 7a3d d59a 003e f439 243e 6b43 ab3d
000001b0: 14d1 1a3e f5dd ec3d b4cb 813d e32b 483c
000001c0: 4a5e c93c 7197 de3e 3c2b 703d 775e 80be
000001d0: 54ec 143e 76f8 a73d f262 d33c d137 80bd
000001e0: b3f5 4a3d 8c0b 8e3c e789 273e e951 77bd
000001f0: 79cb 3bbd 5f06 b7bd d369 b43d 77ba 8ebd
00000200: ef23 a23e 2171 8c3d a05b f3bc c1b8 3ebe
00000210: 1cd8 a83e fdf0 6bbe d4a3 933d 7792 b1b8
00000220: 1c1b 273e abca 96be 93c3 aa3e 0f77 f83d
00000230: 87b9 043e 5aab e9bd a3b1 733d c48a 62bd
00000240: 0a1e 83bd 4129 593e b410 da3d a5ca b33e
00000250: 8fbd a83d dacf 423d c82e 0bbc b246 fb3b
00000260: 3574 54be 375b cf3d f905 923e de4f babd
00000270: 11d2 c03c 7bc5 b6bd a1e5 29be 0309 e7bd
00000280: bcf5 b2be 8fe7 a93d de09 fe3d 2a8d 9abe
00000290: 5ced 633e f585 013e ffad 4cbd f963 d2bd
000002a0: fffa 183e b6b1 593d 7b7e 1e3d c18b 3bbe
000002b0: d44a 4f3e c825 ebbd 0c8f 62bc 9d6e 51be
000002c0: d6f4 883e 4bb6 46be f319 cdbb e2dc 2f3e
000002d0: e517 e3bd db15 82bc d92c 95bd 6229 9fbd
000002e0: c54d dbbd 8a15 12be 56c5 99bd fb60 a6be
000002f0: 4056 f73d 6674 21be b131 46be 9fb4 54be
00000300: be61 b1bd caa6 d0be 6501 233e 8da4 833e
00000310: c892 a63e 8810 3e3e 9a00 e4bd 2053 28be
00000320: 7b3e fb3d 481e 90be b636 b239 510f b93d
00000330: d4a3 7a3e e675 8bbe ea70 28bd 71de d9bd
00000340: cdc8 9dbe be3f ab3e 0179 9f3d a7c6 f53d
00000350: 06ca 0f3e bf24 bbbd 67f2 b13d 9c4e 833c
00000360: a605 f63d aaac cf3b 84a1 9d3e 79a4 383e
00000370: 4c47 863e 1980 66bd acb7 e83d 3efc f53c
00000380: 6014 1bbe 1299 423e e9b6 8ebe 883d b83d
00000390: 3571 5e3e 2a03 19bd eb40 7fba 3164 673d
000003a0: 6e85 8bbd 4fdf 50bd cf72 963e 9fc6 dc3d
000003b0: 23e4 a03e 4613 afbe 3beb a5bd 2522 19be
000003c0: 3913 343e 282c e63b 41a8 84be 244a 873e
000003d0: 9ebb 8c3d 3ca7 63bd 2330 b23e 9530 903d
000003e0: a15c 553e 36f2 3abe 2135 833e 8410 a7bd
000003f0: 8ecb 46bd 658e b33c 1075 263b 0608 7fbe

layers.0.linear1.bias f4 [16]
-0.12189177 -0.2750685 0.18601447 -0.0792506 -0.18661992 0.0051129824 -0.2902868 -0.032320023
-0.07971324 0.048523515 0.10395132 -0.083960995 -0.11004482 -0.32472137 -0.10232955 0.06535868
00000000: 64a2 f9bd c7d5 8cbe 947a 3e3e 234e a2bd
00000010: 4b19 3fbe ce8a a73b 79a0 94be 0062 04bd
00000020: b240 a3bd 98c0 463d 6ee4 d43d bef3 abbd
00000030: 2e5f e1bd e141 a6be 2892 d1bd c6da 853d

layers.0.linear2.weight f4 [16, 16]
-0.07665765 0.047089983 0.21165727 0.025127426 0.13165437 0.29659736 -0.01764066 0.27136922
0.058076672 -0.22409505 0.20461985 0.13527115 -0.08088264 -0.0078036496 -0.10968947 -0.059523914
-0.09737384 0.0038556524 -0.229479 0.048753645 0.23395495 -0.06119164 0.08159556 -0.286434
-0.013340991 -0.112427786 0.31203124 0.25539914 -0.29631412 0.2974129 -0.07848282 0.1982216
-0.037088078 0.18422034 -0.13016737 0.30420095 0.07145018 -0.32986686 -0.085382916 0.41838607
0.12735482 -0.018471261 -0.1453139 0.21194503 0.07364702 -0.123230755 -0.09440867 0.18568212
0.042257957 -0.093845166 -0.18984735 -0.07243981 -0.3606442 -0.3300069 -0.35940012 0.108346306
-0.20284234 0.05872662 0.14492145 0.06781412 0.21894988 -0.052903075 0.039378405 -0.012031998
-0.2602735 -0.37923083 -0.054966666 0.21681064 0.2304712 0.050420422 -0.008206905 -0.17726272
0.16145207 0.09994649 -0.17375895 -0.09078387 -0.28542885 -0.42113465 -0.36540952 0.22166413
0.05482017 -0.1671251 0.009052494 0.14528285 0.26726705 0.22571331 -0.06664436 -0.12683313
0.23510462 0.08606925 0.043111503 0.049653858 -0.2553416 -0.11984629 0.029322209 0.11978073
-0.025542196 0.050430592 -0.17656238 0.10009477 0.30478057 -0.20484512 0.3152464 -0.12182686
0.18134482 -0.12562084 -0.10372306 -0.28078848 -0.07098072 0.009617894 -0.06150892 -0.18501846
0.076971546 0.016493972 0.1963534 0.009350462 -0.010866088 -0.1829268 0.029193452 -0.0009401906
-0.09863239 0.07023079 0.01130684 -0.0031869367 0.39595875 0.015784869 0.0035817262 0.016677396
0.15555353 0.107975215 0.059416886 -0.092964955 -0.18630666 0.05586145 0.046496768 -0.011189016
-0.08088852 0.086775005 -0.089815274 -0.0736496 0.1029366 0.32027596 0.012379875 0.17953414
0.16986716 -0.13058737 0.3017733 -0.21484429 -0.16654488 0.019884376 0.03460827 0.016644254
-0.13292187 0.12699895 0.1586654 -0.06722083 -0.074702345 0.05363438 -0.2713701 -0.21854451
-0.032408524 0.04885391 0.02220318 -0.27620035 -0.21359876 0.19080089 0.026709368 -0.2432223
0.041617516 -0.122047395 -0.09661467 -0.08504171 0.023119042 -0.095166385 0.44251195 -0.12807235
0.02012313 -0.14469351 0.12768109 0.4004492 0.41535404 0.026635416 -0.08666532 -0.1631298
0.14160113 0.15861936 0.33147594 0.36095247 0.07169957 -0.385653 -0.31140107 0.114749804
0.047296256 -0.11362796 -0.11500746 0.04050071 0.026435137 0.0014565819 -0.09477519 0.019549927
0.09409733 -0.06516861 -0.17929354 -0.14099981 -0.16773413 -0.17431289 -0.024910552 0.22861852
0.052985884 -0.19211763 -0.10633882 -0.10947556 -0.5370557 -0.049985256 -0.20889834 0.20990485
-0.114141375 0.103930615 -0.12440681 -0.14456803 0.52132803 -0.16641039 0.12870744 0.004225802
0.046068132 0.101670265 0.019731428 0.05631738 -0.10343875 0.089391135 0.026802555 -0.036131393
-0.16988371 0.06245426 -0.081472725 -0.03791267 -0.051030613 -0.02811468 -0.046571292 -0.10011073
0.023111017 -0.025496539 0.34894204 -0.34652036 -0.2508927 0.14813471 -0.20309009 0.17993045
-0.1457248 0.23594046 0.18793719 0.06473129 0.069062926 0.2780409 0.2766859 0.12854882
00000000: b0fe 9cbd 6de1 403d afbc 583e 08d8 cd3c
00000010: 67d0 063e 9cdb 973e 2583 90bc e8f0 8a3e
00000020: cee1 6d3d 2c79 65be de87 513e 8584 0a3e
00000030: cca5 a5bd c2b5 ffbb dfa4 e0bd 59cf 73bd
00000040: f06b c7bd 1daf 7c3b 8bfc 6abe e7b1 473d
00000050: e391 6f3e 16a4 7abd 931b a73d 7aa7 92be
00000060: 2c94 5abc 8a40 e6bd 8fc2 9f3e adc3 823e
00000070: 7cb6 97be 8146 983e 9abb a0bd 9afa 4a3e
00000080: abe9 17bd 42a4 3c3e 984a 05be 3ac0 9b3e
00000090: 7954 923d 4fe4 a8be 3ddd aebd b336 d63e
000000a0: 4d69 023e 0b51 97bc 2bcd 14be 1e08 593e
000000b0: 40d4 963d 6860 fcbd 5559 c1bd 7423 3e3e
000000c0: ae16 2d3d e531 c0bd 5867 42be 535b 94bd
000000d0: 5ba6 b8be aaf6 a8be 4b03 b8be abe4 dd3d
000000e0: e7b5 4fbe 538b 703d 4a66 143e 21e2 8a3d
000000f0: 6634 603e e5b0 58bd 404b 213d db21 45bc
00000100: 9142 85be 8b2a c2be ba24 61bd 9c03 5e3e
00000110: a400 6c3e a585 4e3d 4176 06bc 5c84 35be
00000120: b153 253e bfb0 cc3d deed 31be e5ec b9bd
00000130: bb23 92be f69e d7be f516 bbbe ecfb 623e
00000140: 1d8b 603d d822 2bbe e950 143c 07c5 143e
00000150: 3ad7 883e 6421 673e d77c 88bd 8be0 01be
00000160: 44bf 703e 1345 b03d b095 303d d861 4b3d
00000170: 22bc 82be f971 f5bd 2135 f03c 994f f53d
00000180: de3d d1bc 4f90 4e3d c5cc 34be 7dfe cc3d
00000190: 330c 9c3e ebc2 51be fa67 a13e 5c80 f9bd
000001a0: 75b2 393e c0a2 00be c16c d4bd 82c3 8fbe
000001b0: 575e 91bd 5f94 1d3c c7f0 7bbd 7b75 3dbe
000001c0: 42a3 9d3d 5e1e 873c de10 493e ae32 193c
000001d0: ad07 32bc 2a51 3bbe 1b27 ef3c 2077 76ba
000001e0: c7ff c9bd 29d5 8f3d 5340 393c eddb 50bb
000001f0: 1bbb ca3e 454f 813c 65bb 6a3b 099f 883c
00000200: 6d49 1f3e 1c22 dd3d 1f5f 733d 6964 bebd
00000210: 2cc7 3ebe face 643d 6573 3e3d 2252 37bc
00000220: e1a8 a5bd 18b7 b13d 12f1 b7bd 9ad5 96bd
00000230: 6dd0 d23d 36fb a33e f6d4 4a3c ccd7 373e
00000240: a8f1 2d3e b2b8 05be 0882 9a3e 2400 5cbe
00000250: be8a 2abe 8fe4 a23c 67c1 0d3d 8859 883c
00000260: ac1c 08be 030c 023e 2f79 223e 13ab 89bd
00000270: 8bfd 98bd b9af 5b3d 06f1 8abe 22ca 5fbe
00000280: cdbe 04bd 0a1b 483d 71e3 b53c 226a 8dbe
00000290: a2b9 5abe 4f61 433e 9bcd da3c 440f 79be
000002a0: 2177 2a3d fcf3 f9bd e9dd c5bd 592a aebd
000002b0: 2564 bd3c 98e6 c2bd ed90 e23e 6625 03be
000002c0: 43d9 a43c 892a 14be d5be 023e ad07 cd3e
000002d0: 49a9 d43e 8432 da3c 967d b1bd 800b 27be
000002e0: e3ff 103e 1d6d 223e 37b7 a93e c3ce b83e
000002f0: 39d7 923d 4f74 c5be f66f 9fbe f201 eb3d
00000300: b8b9 413d c7b5 e8bd 0889 ebbd 13e4 253d
00000310: 808e d83c c7ea be3a 7f19 c2bd 2b27 a03c
00000320: 1ab6 c03d 1f77 85bd ba98 37be 4162 10be
00000330: 7fc2 2bbe 147f 32be 3711 ccbc f91a 6a3e
00000340: ba07 593d 7cba 44be 2bc8 d9bd b934 e0bd
00000350: 7b7c 09bf 57bd 4cbd 72e9 55be 4cf1 563e
00000360: f4c2 e9bd 93d9 d43d ffc8 febd a409 14be
00000370: c175 053f 7c67 2abe e2cb 033e 9978 8a3b
00000380: f0b1 3c3d 8038 d03d cea3 a13c 0ead 663d
00000390: b2d7 d3bd b312 b73d 0891 db3c 83fe 13bd
000003a0: fff5 2dbe 0ad0 7f3d 2cdb a6bd 514a 1bbd
000003b0: 7a05 51bd c250 e6bc 8ac1 3ebd db06 cdbd
000003c0: 5153 bd3c 1ede d0bc 88a8 b23e 1e6b b1be
000003d0: 0275 80be a0b0 173e d9f6 4fbe b03f 383e
000003e0: e238 15be 609a 713e 9b72 403e d791 843d
000003f0: dd70 8d3d 605b 8e3e c6a9 8d3e 4da2 033e

layers.0.linear2.bias f4 [16]
-0.030651677 0.02100851 -0.08009503 0.00040424493 0.069537625 0.009197005 0.013695285 -0.03750089
-0.0022444988 0.004364369 0.04365686 -0.058081407 0.038674776 0.018059375 0.0038282499 -0.122913405
00000000: 3a19 fbbc 0a1a ac3c dd08 a4bd d6f0 d339
00000010: be69 8e3d 09af 163c 3062 603c 899a 19bd
00000020: 7118 13bb fb02 8f3b 89d1 323d c5e6 6dbd
00000030: 7169 1e3d 41f1 933c 60e3 7a3b 06ba fbbd

layers.0.norm1.weight f4 [16]
1.3055428 1.3662615 1.0547717 1.1474181 0.893104 0.87429905 0.92544055 0.8851481
0.86378753 0.9110766 0.8876037 0.6626081 0.98198783 0.7812081 0.88314134 0.8187253
00000000: 071c a73f a8e1 ae3f c202 873f 99de 923f
00000010: 77a2 643f 10d2 5f3f ace9 6c3f 1199 623f
00000020: 2e21 5d3f 513c 693f ff39 633f afa0 293f
00000030: 8e63 7b3f 41fd 473f 8d15 623f fb97 513f

layers.0.norm1.bias f4 [16]
0.0590077 0.051839348 -0.07129947 0.04118147 -0.06638374 -0.14401835 0.013543551 -0.06261628
-0.07903181 -0.06962595 -0.013777031 -0.17918491 0.013109365 -0.045571044 0.065653704 0.03563355
00000000: 0fb2 713d 7f55 543d 7505 92bd e7ad 283d
00000010: 33f4 87bd 8c79 13be c5e5 5d3c f73c 80bd
00000020: 6edb a1bd 0d98 8ebd 0eb9 61bc 407c 37be
00000030: a9c8 563c b4a8 3abd 7375 863d 7cf4 113d

layers.0.norm2.weight f4 [16]
1.2388855 1.2919008 0.97746056 1.099693 0.8834969 1.0249884 1.0575637 1.0104852
0.9954478 0.9081678 0.9289089 0.7800959 0.86433125 0.8320443 0.94244504 0.8117628
00000000: cd93 9e3f 015d a53f db3a 7a3f bdc2 8c3f
00000010: da2c 623f d232 833f 3f5e 873f 9457 813f
00000020: abd5 7e3f af7d 683f f9cc 6d3f 5db4 473f
00000030: d044 5d3f db00 553f 1444 713f b0cf 4f3f

layers.0.norm2.bias f4 [16]
0.13222443 0.020905105 -0.08623489 -0.04576835 0.003119033 -0.11041591 0.028494628 -0.08268696
-0.070879444 -0.07850204 0.02337731 -0.10264295 0.06279142 -0.088896684 0.0102566425 0.018054385
00000000: d765 073e 2f41 ab3c eb9b b0bd 9877 3bbd
00000010: b168 4c3b bd21 e2bd 916d e93c c857 a9bd
00000020: 3e29 91bd adc5 a0bd c681 bf3c 7836 d2bd
00000030: ca98 803d 770f b6bd 7a0b 283c cae6 933c

layers.1.self_attn.in_proj_weight f4 [48, 16]
-0.36343443 0.52460325 -0.09543529 0.43820384 -0.13434733 0.14167845 -0.2846064 0.14298917
-0.13759613 0.037946794 0.27794757 -0.1004545 0.20352866 0.06593174 -0.07353188 0.29418936
-0.050309867 0.4623633 0.0032869272 0.24699245 0.11717048 0.25995132 -0.08690323 0.24227864
0.021012558 0.038588382 0.16903819 -0.10476159 -0.13685834 -0.088668354 -0.21405783 -0.28219095
0.42521194 -0.2689451 0.23512962 -0.2884167 -0.26898983 0.13806523 -0.12960659 -0.1972857
-0.40919593 0.07716667 -0.40953708 0.10643122 -0.022083016 0.21675098 0.19897838 -0.133326
-0.35915083 0.2598325 -0.11226961 0.5767928 -0.20146883 0.019004725 0.12385483 0.21799648
-0.09664853 0.12891674 -0.10291702 0.14313507 0.033932067 -0.2763918 0.15152498 -0.27422765
0.3949886 0.17146309 0.5156488 -0.06681313 0.32388282 -0.16964774 0.106030315 0.046137065
-0.23073676 0.09115739 -0.41199014 -0.47307208 -0.45256507 -0.23417486 -0.1553954 0.1324235
-0.25454202 0.36285248 0.037261326 0.43074822 -0.032730114 -0.036802787 -0.03892462 0.023158282
0.17449537 -0.16884735 0.14048015 -0.18640873 0.23216814 -0.2752635 -0.019370647 0.19747883
-0.15341192 -0.44817665 -0.1254425 0.12534925 -0.16320863 -0.10689335 -0.04474176 -0.190531
0.067686826 0.3019032 -0.050557543 0.21654743 -0.01735 0.33353087 -0.11036673 0.19695896
-0.111203775 -0.15524603 0.036880467 0.19820938 0.2546304 -0.063189454 0.12893336 0.09681968
0.100538686 -0.27897197 0.4744907 -0.22764531 -0.09252051 0.17771363 0.052833546 -0.08457211
-0.20715846 -0.4353093 0.24423027 -0.053539947 0.27861246 -0.1739952 -0.15780728 0.08405165
-0.13677178 -0.10400161 -0.026211599 -0.40062 0.37560746 -0.1153099 0.11396387 -0.37928626
-0.23400626 0.020187598 0.05991451 0.11773424 0.17181355 0.14356373 0.32628673 -0.17451704
0.12777041 0.19278824 -0.36821035 0.2049241 -0.24325264 -0.06586839 0.01967695 0.06470582
-0.022437163 0.2490993 -0.2488071 0.11505104 0.12976766 -0.08880647 0.23681624 0.1482056
0.44648927 -0.35618338 -0.12701277 -0.39296356 0.08203089 -0.20309475 0.1734364 0.08705953
0.24386926 0.22827783 0.14067791 0.36115626 0.18563277 0.011107769 -0.3744006 -0.35855654
0.23139839 0.114558674 -0.044835385 -0.33736095 -0.054187387 0.0017785827 0.08382445 -0.096714325
0.2622931 -0.28574264 0.32623184 0.35508814 0.040779088 0.2140678 0.14588052 -0.12382002
0.2247932 -0.078505464 0.043772593 -0.07806258 -0.1480802 0.15695436 0.27116188 -0.11662218
-0.33380243 -0.4397092 -0.20114408 -0.09935674 0.17316352 0.16161339 -0.12265815 0.32420036
0.12931095 0.032847475 0.18780647 0.14468792 0.06834372 0.11327431 -0.37944204 0.25501817
-0.29967722 -0.1044279 0.1858391 -0.012586305 0.13965271 -0.26632074 -0.10142605 -0.04735626
0.121555194 0.33282447 -0.3426724 -0.177749 0.085660905 -0.19342783 0.34034866 0.0738105
-0.045043446 -0.15809931 0.3093819 -0.052448053 0.032497704 0.25036892 0.26516417 0.011440923
0.32633847 0.19846904 0.07597997 0.13322674 -0.21668892 -0.15081024 -0.07269655 0.12003401
00000000: 1414 babe 664c 063f 9473 c3bd 415c e03e
00000010: 5992 09be 2814 113e eeb7 91be c16b 123e
00000020: 00e6 0cbe 196e 1b3d 254f 8e3e 17bb cdbd
00000030: d169 503e 3807 873d e297 96bd fd9f 963e
00000040: b811 4ebd e2ba ec3e 7d69 573b 97eb 7c3e
00000050: 14f7 ef3d 5718 853e 52fa b1bd e417 783e
00000060: 8722 ac3c da0e 1e3d 5918 2d3e 3f8d d6bd
00000070: 9824 0cbe c197 b5bd fa31 5bbe 557b 90be
00000080: 61b5 d93e 2cb3 89be d2c5 703e 5bab 93be
00000090: 09b9 89be f960 0d3e 97b7 04be 4305 4abe
000000a0: 2182 d1be 8f09 9e3d d8ae d1be 9df8 d93d
000000b0: 71e7 b4bc f8f3 5d3e fdc0 4b3e 9c86 08be
000000c0: 9ee2 b7be c408 853e 9ced e5bd b1a8 133f
000000d0: d84d 4ebe ccaf 9b3c 9aa7 fd3d 783a 5f3e
000000e0: aaef c5bd c002 043e 29c6 d2bd 0092 123e
000000f0: 5afc 0a3d 3a83 8dbe 5d29 1b3e 9167 8cbe
00000100: f23b ca3e 0594 2f3e 8f01 043f 53d5 88bd
00000110: f8d3 a53e 23b8 2dbe 6c26 d93d 38fa 3c3d
00000120: 4246 6cbe bab0 ba3d 5ff0 d2be 8136 f2be
00000130: 9cb6 e7be 89cb 6fbe f91f 1fbe 079a 073e
00000140: 5553 82be cdc7 b93e 559f 183d 088b dc3e
00000150: 0310 06bd 85be 16bd 6c6f 1fbd 70b6 bd3c
00000160: eaae 323e 52e6 2cbe 07da 0f3e eee1 3ebe
00000170: 7cbd 6d3e 56ef 8cbe 31af 9ebc e437 4a3e
00000180: 0418 1dbe 6977 e5be 0074 00be 8e5b 003e
00000190: 2a20 27be e7ea dabd 2343 37bd 8f1a 43be
000001a0: 649f 8a3d 0e93 9a3e 6d15 4fbd 9cbe 5d3e
000001b0: 9621 8ebc 8fc4 aa3e f407 e2bd 9caf 493e
000001c0: cebe e3bd d1f8 1ebe f90f 173d 66f7 4a3e
000001d0: ea5e 823e 7969 81bd 1b07 043e 6549 c63d
000001e0: 3ae7 cd3d 6ad5 8ebe 72f0 f23e da1b 69be
000001f0: 657b bdbd 90fa 353e fd67 583d 2434 adbd
00000200: 5921 54be dce0 debe 8017 7a3e b44c 5bbd
00000210: 4ba6 8e3e cc2b 32be 3b98 21be 4523 ac3d
00000220: e70d 0cbe ccfe d4bd b5b9 d6bc 111e cdbe
00000230: 9f4f c03e 9927 ecbd e465 e93d cf31 c2be
00000240: 569f 6fbe 7660 a53c eb68 753d a61e f13d
00000250: e4ef 2f3e 5f02 133e 0e0f a73e 98b4 32be
00000260: 3fd6 023e 486a 453e 1186 bcbe a0d7 513e
00000270: 3817 79be 02e6 86bd 8e31 a13c 7c84 843d
00000280: 24ce b7bc e313 7f3e 4ac7 7ebe e19f eb3d
00000290: d0e1 043e 2be0 b5bd f57f 723e 35c3 173e
000002a0: 3e9a e43e ab5d b6be a30f 02be 8532 c9be
000002b0: d0ff a73d 12f8 4fbe 5099 313e 444c b23d
000002c0: ddb8 793e aac1 693e df0d 103e 79e9 b83e
000002d0: 8416 3e3e 5cfd 353c 6fb1 bfbe b994 b7be
000002e0: b3f3 6c3e bd9d ea3d 4fa5 37bd 93ba acbe
000002f0: 98f3 5dbd 551f e93a 27ac ab3d 2912 c6bd
00000300: 484b 863e dc4c 92be dc07 a73e 1dce b53e
00000310: f907 273d 9734 5b3e b461 153e 5a95 fdbd
00000320: 3030 663e 79c7 a0bd e44a 333d 46df 9fbd
00000330: 56a2 17be a5b8 203e bbd5 8a3e 9cd7 eebd
00000340: 27e8 aabe 9021 e1be b7f8 4dbe 8c7b cbbd
00000350: c751 313e fb7d 253e 3234 fbbd 97fd a53e
00000360: 176a 043e 138b 063d 5750 403e 1229 143e
00000370: cbf7 8b3d 5dfc e73d 3a46 c2be be91 823e
00000380: 4b6f 99be 4bde d5bd 9b4c 3e3e ca36 4ebc
00000390: 1f01 0f3e 315b 88be 76b8 cfbd a3f8 41bd
000003a0: eef1 f83d f867 aa3e c272 afbe d503 36be
000003b0: fc6e af3d f211 46be 2e42 ae3e f629 973d
000003c0: 7a7f 38bd c9e4 21be 4e67 9e3e c5d3 56bd
000003d0: 501c 053d 5b30 803e 99c3 873e b672 3b3c
000003e0: d615 a73e 783b 4b3e 639b 9b3d 976c 083e
000003f0: b3e3 5dbe 006e 1abe eee1 94bd 64d4 f53d

layers.1.self_attn.in_proj_bias f4 [48]
-0.120417066 -0.03584415 0.2934647 -0.26740664 -0.07769329 0.059670005 0.26733175 -0.053917445
-0.05355535 -0.15297286 0.0072596683 -0.022825157 -0.120637216 0.27895498 0.04495998 -0.11204523
-0.0011643535 -0.0009454372 -0.00019408602 -0.000383625 -0.0014936477 0.0012738972 -3.311955e-05 0.0014298554
0.0014440136 -0.0012145338 0.00078419416 -0.0012677344 7.0021146e-05 -0.0044901054 0.000978964 -0.0003874068
0.03829294 -0.041417226 -0.0107853515 -0.07796131 0.0701376 0.0006988842 0.036647126 -0.075424865
0.016674414 -0.045641866 0.03175484 0.043662887 -0.022897413 -0.02376173 0.088197 -0.02731621
00000000: 399d f6bd 51d1 12bd 0141 963e 86e9 88be
00000010: a91d 9fbd 8968 743d b5df 883e 8ad8 5cbd
00000020: db5c 5bbd eba4 1cbe 83e2 ed3b d3fb babc
00000030: a510 f7bd 30d3 8e3e f527 383d f877 e5bd
00000040: 389d 98ba 37d7 77ba 9283 4bb9 4721 c9b9
00000050: 80c6 c3ba e6f8 a63a d9e9 0ab8 fc69 bb3a
00000060: 0e45 bd3a fe30 9fba 6192 4d3a 1c2a a6ba
00000070: 51d8 9238 bc21 93bb 9550 803a dc1c cbb9
00000080: 0fd9 1c3d 1ca5 29bd 0bb5 30bc 2eaa 9fbd
00000090: 4da4 8f3d 5335 373a 4c1b 163d 5a78 9abd
000000a0: c898 883c f7f2 3abd 5d11 023d dbd7 323d
000000b0: 5b93 bbbc f6a7 c2bc a1a0 b43d 3fc6 dfbc

layers.1.self_attn.out_proj.weight f4 [16, 16]
0.21906967 0.046250507 -0.013315248 -0.058729354 0.04843532 0.0073227696 0.07015644 -0.047292296
-0.11762615 0.06383664 0.14369613 0.08533442 -0.2399438 0.08579615 0.026106715 0.29470593
-0.24175711 0.026714696 0.10378292 0.012258571 0.007330441 0.16271295 -0.1510076 0.16228671
-0.09373093 -0.061730217 0.16981164 -0.17299727 0.26544988 0.26806396 0.2342235 0.27194718
0.13444845 -0.00741742 0.007660868 0.1012784 0.22322622 0.17739974 0.023773594 0.06912285
0.058901504 -0.070993006 -0.09398082 -0.12106453 -0.18643701 -0.23272245 0.08944613 -0.08368753
-0.07945528 0.108479716 0.2172423 0.0011030672 0.07781471 -0.10408284 -0.022203745 0.06831057
0.073149085 -0.005664537 -0.157919 0.074948035 -0.020710029 -0.086783744 -0.11816237 0.07924133
0.05967751 0.17444165 0.13221115 -0.25972134 -0.13682857 -0.21250577 0.32620803 0.18968372
0.19836144 0.1304658 0.049952198 -0.13859196 -0.09195764 0.061560605 0.1850947 -0.044161063
-0.018982489 0.07441473 0.018714633 -0.26420823 0.17012388 -0.03858603 -0.14345329 -0.045433618
-0.084392026 -0.13945231 -0.15363078 -0.026418233 0.02097867 -0.071523204 -0.18442355 0.13184004
0.043972127 -0.25830582 0.25722727 0.12517259 -0.062296852 0.04736315 -0.13640647 -0.074650735
0.0873718 -0.07011014 -0.085250385 -0.13820797 0.023498986 0.03618596 -0.15453562 0.02193065
-0.03362453 -0.0056244927 -0.11264168 0.16323118 0.019939534 -0.17411304 0.015394313 0.017198512
0.09735151 -0.0017100269 -0.2985849 -0.13220967 -0.1683954 -0.08460763 -0.1792703 0.20257397
0.006153386 -0.26030394 -0.032293923 -0.26366943 0.041854113 0.07938074 -0.010521456 -0.17852035
0.045968335 -0.09063479 0.11319822 0.047309913 0.06295598 0.026643755 -0.09586794 0.07570937
0.05899242 -0.1471826 0.09977193 -0.079790525 -0.080776535 0.113919914 0.012471925 -0.18683451
-0.044878185 -0.05711736 -0.13396469 0.065073185 0.054791793 0.11792522 -0.120552845 0.085459396
0.1918526 0.32338643 -0.22940393 -0.108323015 -0.0346258 0.069609836 -0.06787607 -0.0537146
0.063408464 0.19600946 -0.10668855 0.18170099 0.09585704 0.061621074 -0.12825976 0.0037147223
-0.3757682 0.29289445 0.30490628 0.2750818 0.17287505 0.2834496 -0.14406212 0.023542799
-0.091788635 -0.13095817 -0.16952999 -0.11712871 -0.008288989 -0.1687185 -0.1479528 -0.18317457
-0.19994436 0.17172515 0.17096153 0.080541484 0.2883634 0.13963643 -0.07496089 -0.0034915707
0.08164002 -0.09738089 -0.08262223 -0.038973365 0.27157182 0.18668929 -0.22723286 -0.031973947
-0.0034827087 -0.2267762 -0.32767868 -0.27016342 0.03430597 0.15872408 -0.15002891 -0.25371838
0.24293429 -0.19013199 -0.1818537 0.13227509 0.22762494 -0.19932468 -0.104638964 -0.14267635
0.32910737 -0.134167 0.016720306 -0.0076822494 -0.19438978 -0.024317494 0.026877176 0.20252843
-0.15424287 0.18809801 0.09150489 0.110862695 -0.1521135 0.20547016 0.10440732 -0.052165102
0.19689615 -0.09869248 -0.24491888 0.1393909 -0.2644643 -0.098369025 0.2705694 -0.17047222
-0.25896132 0.14908567 -0.067341335 0.12905316 0.19479144 -0.011096474 0.06692121 0.06890293
00000000: cd53 603e 2c71 3d3d 3328 5abc 318e 70bd
00000010: 1d64 463d d8f3 ef3b 2eae 8f3d 91b5 41bd
00000020: fbe5 f0bd c9bc 823d 1425 133e d0c3 ae3d
00000030: d4b3 75be e4b5 af3d c0dd d53c b2e3 963e
00000040: 2d8f 77be c7d8 da3c 248c d43d 2cd8 483c
00000050: 3234 f03b 399e 263e bca1 1abe 7d2e 263e
00000060: 00f6 bfbd d3d8 7cbd 1ae3 2d3e 3226 31be
00000070: 0ce9 873e ae3f 893e 49d8 6f3e a93c 8b3e
00000080: dbac 093e d40d f3bb 0508 fb3b 0d6b cf3d
00000090: 6a95 643e 47a8 353e d7c0 c23c 4890 8d3d
000000a0: b442 713d c864 91bd 0479 c0bd aef0 f7bd
000000b0: 58e9 3ebe cb4e 6ebe 882f b73d 5e64 abbd
000000c0: 73b9 a2bd 9d2a de3d c474 5e3e cb94 903a
000000d0: 525d 9f3d 6229 d5bd a1e4 b5bc 6ae6 8b3d
000000e0: 30cf 953d 959d b9bb 85b5 21be 5b7e 993d
000000f0: 14a8 a9bc adbb b1bd 1dff f1bd 4749 a23d
00000100: 6870 743d d5a0 323e 5c62 073e 32fa 84be
00000110: ca1c 0cbe 1d9b 59be bd04 a73e 733c 423e
00000120: 431f 4b3e d498 053e ad9a 4c3d 0deb 0dbe
00000130: 4a54 bcbd f926 7c3d 7789 3d3e 3be2 34bd
00000140: 2a81 9bbc c066 983d 6e4f 993c 4d46 87be
00000150: f434 2e3e 630c 1ebd 6be5 12be 9a18 3abd
00000160: bad5 acbd 96cc 0ebe 6351 1dbe 0d6b d8bc
00000170: 76db ab3c c27a 92bd 87d9 3cbe 1301 073e
00000180: 1e1c 343d a940 84be 4bb3 833e 3e2d 003e
00000190: fc2a 7fbd ddff 413d 23ae 0bbe 7ce2 98bd
000001a0: fcef b23d e895 8fbd c197 aebd 6486 0dbe
000001b0: f280 c03c bb37 143d 963e 1ebe e8a7 b33c
000001c0: e0b9 09bd aa4d b8bb aeb0 e6bd 1326 273e
000001d0: 3c58 a33c b04a 32be 6e38 7c3c e5e3 8c3c
000001e0: 3a60 c73d fb22 e0ba 1fe0 98be f961 07be
000001f0: d86f 2cbe c446 adbd a292 37be 8d6f 4f3e
00000200: 58a2 c93b 8f46 85be a246 04bd aeff 86be
00000210: 386f 2b3d 5f92 a23d 2f62 2cbc 0ace 36be
00000220: 4b49 3c3d bc9e b9bd 78d4 e73d 0ac8 413d
00000230: 11ef 803d 0144 da3c 6956 c4bd 840d 9b3d
00000240: 09a2 713d 09b7 16be 3a55 cc3d 3769 a3bd
00000250: 2b6e a5bd d84e e93d 0b57 4c3c 8c51 3fbe
00000260: 30d2 37bd e5f3 69bd 0a2e 09be 1745 853d
00000270: 5c6d 603d c782 f13d 69e4 f6bd 5605 af3d
00000280: 0275 443e e892 a53e dde8 6abe 75d8 ddbd
00000290: c8d3 0dbd 9a8f 8e3d 9c02 8bbd d703 5cbd
000002a0: 4cdc 813d b4b6 483e 877f dabd d30f 3a3e
000002b0: b250 c43d 6166 7c3d 8756 03be b372 733b
000002c0: b164 c0be 43f6 953e ad1c 9c3e 86d7 8c3e
000002d0: 2806 313e 4e20 913e 0585 13be d4dc c03c
000002e0: aefb bbbd e619 06be 4599 2dbe 2de1 efbd
000002f0: 8ace 07bc 8bc4 2cbe f080 17be 1d92 3bbe
00000300: 37be 4cbe b8d8 2f3e 8a10 2f3e eff2 a43d
00000310: 5ea4 933e dafc 0e3e 1885 99bd d6d2 64bb
00000320: e232 a73d a26f c7bd d835 a9bd 89a2 1fbd
00000330: 760b 8b3e 7a2b 3f3e bbaf 68be 1df7 02bd
00000340: 283e 64bb 0538 68be 80c5 a7be dc52 8abe
00000350: 6b84 0c3d 9188 223e 2ea1 19be 60e7 81be
00000360: c4c3 783e f6b1 42be db37 3abe 1f73 073e
00000370: 8316 693e c51b 4cbe f44c d6bd c019 12be
00000380: c380 a83e 1363 09be 06f9 883c 61bb fbbb
00000390: 1d0e 47be 7b35 c7bc 862d dc3c 9d63 4f3e
000003a0: d8f1 1dbe c49c 403e ea66 bb3d fb0b e33d
000003b0: a4c3 1bbe c566 523e 81d3 d53d 13ab 55bd
000003c0: 259f 493e 481f cabd 04cc 7abe 7dbc 0e3e
000003d0: dd67 87be b375 c9bd 1388 8a3e 4590 2ebe
000003e0: 9496 84be eaa9 183e 41ea 89bd 8326 043e
000003f0: 6877 473e fccd 35bc fd0d 893d fb1c 8d3d

layers.1.self_attn.out_proj.bias f4 [16]
0.055744372 -0.021114549 0.03786215 -0.02376744 0.013322517 0.029816782 -0.048150975 -0.042326692
0.039689172 0.05248776 -0.058893457 0.002144318 0.019093245 0.032851137 0.013598506 -0.007942555
00000000: 3654 643d 6bf8 acbc 5815 1b3d efb3 c2bc
00000010: b046 5a3c 5342 f43c f539 45bd c15e 2dbd
00000020: 1d91 223d 68fd 563d 443a 71bd b087 0c3b
00000030: 7069 9c3c ea8e 063d 45cc 5e3c 7d21 02bc
