best_model.pth (torch, 90678 bytes, 100 tensors)

embed.linear.weight f4 [16, 16]
0	0xbb0c1708	-0.0021376032
1	0xbd3cef77	-0.04612681
2	0xbce43c62	-0.027860824
3	0xbc903136	-0.01760159
4	0xbd247e87	-0.04015973
5	0xbc24f28a	-0.010067591
6	0x3c2caad9	0.01053878
7	0xbdbfdf17	-0.09368723
8	0x3c55d449	0.013051101
9	0xbd2e392f	-0.042535003
10	0xbd55cf48	-0.052199632
11	0x3c013aa2	0.007887514
12	0xbc94aaca	-0.018147845
13	0xbcb97292	-0.02263764
14	0x3bc3fadf	0.005980834
15	0x3d88be8c	0.06676969
16	0xbd56ffd0	-0.052490056
17	0xbd259267	-0.040422823
18	0xbd48e7b6	-0.0490491
19	0xbbfe0a70	-0.007752709
20	0xbd003fc3	-0.031310808
21	0xbc0505de	-0.008119075
22	0xbcab9696	-0.020945828
23	0xbdc5b9f9	-0.09654612
24	0xbcaefbde	-0.021360334
25	0xbd559cf2	-0.052151628
26	0xbd566e8d	-0.052351523
27	0x3c2a06d6	0.010377606
28	0xbbe77770	-0.0070637986
29	0xba09860f	-0.00052461115
30	0x3beb0242	0.0071719
31	0x3dabe849	0.08393914
32	0xbcbb39d4	-0.022854723
33	0xbd681ea5	-0.05666985
34	0xbd62707f	-0.055283066
35	0xbcd01e92	-0.025405202
36	0xbd0d0ae3	-0.03443421
37	0xbba6d5ab	-0.005091389
38	0xbcbf0abd	-0.02332055
39	0xbdfa24e0	-0.122140646
40	0xbcd96b90	-0.026540548
41	0xbd8e6adf	-0.06953978
42	0xbd54705b	-0.051864963
43	0x3c51c1c9	0.01280255
44	0x3b97945c	0.00462584
45	0xbbbe5be2	-0.005809293
46	0x3bb560c8	0.005535219
47	0x3d96c7c0	0.07362318
48	0xbd003378	-0.031299084
49	0xbda73473	-0.08164301
50	0xbd9dec14	-0.07711044
51	0xbc017693	-0.007901805
52	0xbd9825a7	-0.074290566
53	0xbcb126f3	-0.021625018
54	0xbc17eb84	-0.00927246
55	0xbd9e1fe0	-0.077209234
56	0x3cc32e02	0.02382565
57	0xbd3e75fc	-0.046499237
58	0xbd509321	-0.050921563
59	0xbc46c908	-0.0121328905
60	0x3ae798cf	0.0017669442
61	0xbbdacf05	-0.0066775107
62	0x3c036b52	0.008021193
63	0x3de17e1b	0.11010381
64	0xbdc1732d	-0.09445796
65	0xbdb0e4b6	-0.08637373
66	0xbda28061	-0.079346426
67	0xbd1cc5f7	-0.03827473
68	0xbdad0f8e	-0.084502324
69	0xbd304b5b	-0.043040615
70	0xbb90216d	-0.004398516
71	0xbe02299d	-0.12711187
72	0xbc590a00	-0.013247013
73	0xbdef6e4c	-0.11690959
74	0xbd6dc241	-0.058046583
75	0x3d58f74e	0.052970223
76	0x3d5cf440	0.053943872
77	0xbc883496	-0.016626637
78	0x3cf691bd	0.03009879
79	0x3da64a40	0.08119631
80	0xbed9f235	-0.42567602
81	0xbd9dc197	-0.0770294
82	0xbd2cf583	-0.042226326
83	0x3b4297ec	0.0029692603
84	0xbd750305	-0.059817333
85	0xbdc0cfef	-0.0941466
86	0xbd8c4ece	-0.06850968
87	0xbdf306e0	-0.11866546
88	0x3e172d88	0.14763463
89	0x3e1e8920	0.15481997
90	0x3dd198b1	0.10234202
91	0x3deeee32	0.11666526
92	0x3d4bceb9	0.049757693
93	0x3c15e0fb	0.009147878
94	0xbc92784e	-0.017879631
95	0xbdf9d0d8	-0.12198037
96	0xbdcdd168	-0.10049707
97	0xbdda502f	-0.10659825
98	0xbdc0cc51	-0.0941397
99	0xbdab332c	-0.0835937
100	0xbe196d2e	-0.14983055
101	0x3bb15384	0.005411567
102	0x3d290e1b	0.041273218
103	0x3c73b89d	0.014875558
104	0x3df9e39c	0.12201616
105	0x3e2f5ac7	0.17124473
106	0x3e30ce49	0.17266192
107	0x3e0c09d7	0.13675629
108	0xbc428738	-0.011873059
109	0x3dcea8ce	0.10090791
110	0x3e15bc6a	0.14622656
111	0x3e8850a5	0.26624027
112	0x3e554443	0.20826821
113	0xbd0dc89d	-0.034615148
114	0x3c5d2336	0.0134971645
115	0x3a331463	0.0006831346
116	0x3c56ccea	0.013110379
117	0x3d1d60dd	0.038422454
118	0x3da20807	0.07911687
119	0xbdfab169	-0.122408696
120	0x3cb92bb3	0.022603845
121	0x3d0c7049	0.03428677
122	0x3e61659f	0.22011422
123	0x3eab2724	0.334283
124	0x3e79ca85	0.24393661
125	0x3e4f7f93	0.2026351
126	0x3df2c4cb	0.118539415
127	0xbdc538e0	-0.09629989
128	0x3e1e63a5	0.15467699
129	0x3c9ffc60	0.019529521
130	0x3d5ddf3f	0.054167982
131	0x3d8f0702	0.069837585
132	0xbe35ef6d	-0.17767115
133	0xbe80ae1c	-0.25132835
134	0xbe7a297a	-0.24429885
135	0xbe9f588b	-0.3112224
136	0xbe42d2b8	-0.19025695
137	0xbe8268e8	-0.25470662
138	0xbe53da04	-0.20688635
139	0xbda9fd3c	-0.08300254
140	0xbcc5259a	-0.024065781
141	0xbe255eb6	-0.1614941
142	0xbe0ded39	-0.13860025
143	0xbe095277	-0.13410364
144	0x3de03d79	0.10949225
145	0xbd3f7f00	-0.046751976
146	0xbe2d49a7	-0.16922627
147	0xbe12795b	-0.14304106
148	0xbe528e04	-0.20561987
149	0xbe438e5e	-0.19097278
150	0xbe68cc3b	-0.22734158
151	0xbe843c7b	-0.25827393
152	0xbdd46952	-0.10371651
153	0xbdac68f3	-0.08418455
154	0xbd8ff757	-0.07029598
155	0xbd5c36f7	-0.053763356
156	0xbd7078ea	-0.058709063
157	0xbd1a3fbd	-0.03765844
158	0xbc956027	-0.018234326
159	0x3d65dc15	0.05611809
160	0xbda6a384	-0.08136657
161	0x3de9922b	0.114048325
162	0x3e10f6f7	0.1415671
163	0x3e2648ad	0.16238661
164	0x3e550b0c	0.20804995
165	0x3e80ccf2	0.2515636
166	0x3e00286c	0.1251542
167	0xbdf6bfaa	-0.12048276
168	0xbdc3279e	-0.09529041
169	0xbd4312ce	-0.047625355
170	0x3c312bc2	0.010813655
171	0x3dddb5c7	0.10825687
172	0x3d873dca	0.06603582
173	0xbc1d0a9e	-0.009585051
174	0x3d4fe848	0.05075863
175	0xbe452777	-0.19253336
176	0x3db9f746	0.09080367
177	0x3e2fb93c	0.17160505
178	0x3e773190	0.2414
179	0x3e7864f4	0.2425726
180	0x3e023966	0.12717208
181	0x3d61ff6a	0.055175222
182	0xbde52662	-0.111889616
183	0xbe101a5a	-0.14072552
184	0xbd675c12	-0.05648429
185	0xbdbeb416	-0.093116924
186	0xbcd4aae8	-0.0259604
187	0x3df9154f	0.121622674
188	0x3d226e54	0.039656
189	0x3e1887d0	0.14895558
190	0x3e657c8f	0.22410797
191	0x3eb699fa	0.3566435
192	0x3ec70ac0	0.3887539
193	0x3e138cd9	0.14409198
194	0x3d838e57	0.064236335
195	0xbc2da53c	-0.010598477
196	0xbc28da09	-0.01030589
197	0x3d8a1ac1	0.06743384
198	0x3de5f515	0.11228386
199	0x3de7f056	0.11325137
200	0x3ea0e24b	0.31422648
201	0x3e6e680d	0.2328188
202	0x3dd40ccd	0.10354004
203	0xbd4affc8	-0.04956034
204	0xbe0c420f	-0.13697074
205	0xbe4f7e5b	-0.20263045
206	0xbe67caa7	-0.226359
207	0xbe7d8f50	-0.247617
208	0x3dd56e34	0.1042141
209	0xbe278f99	-0.16363372
210	0xbe87c62d	-0.26518384
211	0xbe072e24	-0.13201195
212	0xbe8d6195	-0.27613512
213	0xbe2b5768	-0.16732562
214	0x3d4865b7	0.048925128
215	0x3e09c8f7	0.13455568
216	0x3e6cfa73	0.23142414
217	0x3dc0469b	0.09388467
218	0xbce39f0d	-0.027785802
219	0x3d710c6d	0.05884974
220	0xbd0ffafa	-0.03515146
221	0xbdabd2d2	-0.0838982
222	0xbcebe791	-0.028796943
223	0x3e586551	0.21132399
224	0x3d6de077	0.058075394
225	0xbe234785	-0.15945251
226	0xbd21ab0b	-0.03946976
227	0xbd7e4bd7	-0.062084045
228	0x3da84d78	0.08217901
229	0x3e631fb3	0.22180061
230	0x3e4772c3	0.19477372
231	0x3cc6968d	0.02424171
232	0x3b601095	0.003418957
233	0xbe31e57c	-0.17372698
234	0xbec6be13	-0.3881689
235	0xbeb50c10	-0.35360765
236	0xbdfe2686	-0.124096915
237	0xbd07760e	-0.03307157
238	0x3c5522ad	0.013008756
239	0x3e3dddc5	0.1854163
240	0xbe1704f7	-0.14747988
241	0xbe02bca7	-0.12767278
242	0xbde3bebe	-0.111203656
243	0x3a1d944c	0.00060111727
244	0x3c9cc1e5	0.019135425
245	0x3dd94a67	0.10609894
246	0x3e306368	0.1722542
247	0x3c700af9	0.014651054
248	0x3d6f4bd4	0.058421925
249	0xbe0d759b	-0.13814394
250	0xbe0bc085	-0.13647659
251	0xbdab8be4	-0.083762914
252	0xbdad6f5b	-0.08468505
253	0xbe2a9f2f	-0.16662286
254	0xbdd6d29b	-0.104893886
255	0x3b6eb903	0.0036426194

embed.linear.bias f4 [16]
0	0x3e92902c	0.2862562
1	0x3eaf2971	0.34211305
2	0xbe269584	-0.16267973
3	0xbcf33699	-0.02968912
4	0xbee3e386	-0.44509524
5	0xbf0a77ee	-0.5408925
6	0xbe9e98c5	-0.3097593
7	0xbf085f27	-0.5327019
8	0x3d382f66	0.044967078
9	0xbe002d1e	-0.12517211
10	0xbd6d1f95	-0.057891447
11	0xbe625611	-0.22103144
12	0x3d351e47	0.044218328
13	0x3c91119b	0.01770859
14	0x3e17b6f0	0.14815879
15	0xbdf54334	-0.119757086

layers.0.self_attn.in_proj_weight f4 [48, 16]
0	0xbe5e356d	-0.21700068
1	0xbb8ea4f4	-0.00435316
2	0xbe113e17	-0.14183842
3	0x3e30c275	0.1726168
4	0x3df9acdf	0.12191176
5	0xbe406e99	-0.1879219
6	0xbe087a52	-0.13327911
7	0x3dd7b993	0.10533442
8	0xbdd2e753	-0.10298028
9	0x3bcd7d8b	0.0062710694
10	0xbec8818d	-0.3916134
11	0xbeb7391c	-0.35785758
12	0xbedef311	-0.4354482
13	0xbe5c7081	-0.21527292
14	0x3e9cd1e7	0.30628893
15	0x3da8bfa2	0.08239676
16	0x3d931ef1	0.07183636
17	0xbd6479aa	-0.05578009
18	0xbedc751a	-0.4305809
19	0x3e6db7c0	0.23214626
20	0xbd8b4b03	-0.06801417
21	0x3e7c4d29	0.2463881
22	0xbd427d94	-0.047483042
23	0x3e906f50	0.28209925
24	0xbd330063	-0.04370154
25	0x3d611370	0.054950178
26	0xbe6c9b34	-0.2310608
27	0x3e1a01de	0.15039775
28	0xbf09e8aa	-0.5387064
29	0xbe6b06dd	-0.22951837
30	0xbe4622ed	-0.1934926
31	0xbe152ef7	-0.14568697
32	0x3eaf81dc	0.34278762
33	0x3f212f51	0.62962824
34	0x3f313338	0.6921878
35	0x3f22f181	0.63649756
36	0xbe8a48de	-0.27008718
37	0x3f4f31d4	0.80935407
38	0x3e909d1e	0.2824487
39	0x3e90e384	0.2829858
40	0x3f094115	0.5361493
41	0x3f019946	0.506245
42	0xbf771a8b	-0.96524876
43	0xbed252ba	-0.4107874
44	0xbf17157f	-0.59017175
45	0xbe652734	-0.22378236
46	0xbf4fce59	-0.81174237
47	0xbe7db13f	-0.24774645
48	0xbcfaf398	-0.030633733
49	0x3f979e8a	1.1845257
50	0xbe086ed0	-0.13323522
51	0x3f1c6dfd	0.6110533
52	0xbee8a415	-0.45437685
53	0xbeaa388f	-0.33246276
54	0x3dff39ae	0.124621734
55	0xbd00d339	-0.031451438
56	0xbf0ee8ca	-0.5582396
57	0xbe411d80	-0.1885891
58	0x3d887c83	0.06664374
59	0x3df8c313	0.121465825
60	0x3e8d4f4d	0.27599564
61	0x3dcef98a	0.101061895
62	0x3dd873b6	0.10568945
63	0x3cadfae2	0.021237794
64	0x3d10c416	0.035343252
65	0x3eeaaea7	0.45836374
66	0xbee0fa81	-0.4394112
67	0x3e1e6344	0.15467554
68	0xbed71d7e	-0.42014688
69	0x3e8275aa	0.25480396
70	0xbee9034f	-0.45510337
71	0x3d913f50	0.07092154
72	0x3ed47638	0.41496444
73	0xbd2d56ab	-0.04231898
74	0x3d9b0f0f	0.075712316
75	0x3e139207	0.14411174
76	0x3de08088	0.109620154
77	0xbde78ca2	-0.113061205
78	0xbda96adb	-0.08272334
79	0xbe825f51	-0.25463346
80	0xbdb044cc	-0.08606872
81	0xbdda00f7	-0.10644715
82	0x3e1aece8	0.15129435
83	0xbeef68b8	-0.46759582
84	0xbde07f82	-0.1096182
85	0xbc059938	-0.008154206
86	0xbf0de3ac	-0.55425525
87	0xbe8d0c3f	-0.27548406
88	0x3f609491	0.87726694
89	0x3e8b7336	0.27236336
90	0xbe87ad9e	-0.26499647
91	0xbf1e737e	-0.6189498
92	0x3f0d2f6a	0.55150473
93	0xbc8a3089	-0.016868846
94	0xbdc85d71	-0.097834475
95	0x3edc5cad	0.43039456
96	0x3e24a811	0.16079737
97	0x3f4a474c	0.7901504
98	0x3e34dcb2	0.17662314
99	0x3e8545b4	0.26029742
100	0xbf617c3f	-0.8808021
101	0x3d6a4fc2	0.05720497
102	0xbe501f6d	-0.20324488
103	0x3eebf84c	0.46087873
104	0x3d835954	0.06413522
105	0xbe5f7c9d	-0.2182488
106	0x3e9e4b43	0.30916795
107	0x3e46b05f	0.19403218
108	0x3e94e4cf	0.29080817
109	0xbdecbb4a	-0.1155916
110	0xbec6f46f	-0.38858363
111	0xbe440be0	-0.19145155
112	0x3d59aab0	0.053141296
113	0xbe8dfa4a	-0.27730018
114	0xbea05a59	-0.3131893
115	0xbee7a7a0	-0.45245075
116	0xbe127d2f	-0.14305566
117	0xbea3f5ea	-0.32023555
118	0xbea4a1fb	-0.3215483
119	0xbebf8e67	-0.37413332
120	0x3d244944	0.040108934
121	0x3d814f37	0.06313937
122	0x3e07a8b3	0.13247947
123	0x3ee6e548	0.45096803
124	0xbf217312	-0.6306621
125	0xbe4bd776	-0.1990641
126	0x3ca9f8a0	0.020748436
127	0xbeaaa7ce	-0.3333115
128	0xbe09b891	-0.13449313
129	0x3d2769f6	0.040872537
130	0xbe1cc8ea	-0.15311018
131	0xbef89e66	-0.48558348
132	0xbe8dc89d	-0.27692118
133	0xbe1dea85	-0.15421493
134	0xbf10de1b	-0.56588906
135	0xbe26676c	-0.1625039
136	0x3df5710d	0.11984453
137	0x3efabab4	0.48970568
138	0x3f25dc6e	0.64789474
139	0x3edc2ac5	0.4300138
140	0xbeb1d938	-0.34736037
141	0xbd1a86d6	-0.037726246
142	0x3e6c0c30	0.23051524
143	0x3eda9c10	0.4269719
144	0x3eded582	0.4352227
145	0xbe3df4e5	-0.18550451
146	0x3f0f1973	0.5589821
147	0x3ebd1c35	0.36935583
148	0xbe66299d	-0.22476812
149	0xbe5f1bec	-0.21787995
150	0xbe99e642	-0.30058485
151	0xbf1c3976	-0.6102518
152	0xbbb9343a	-0.005651978
153	0xbe059819	-0.13046302
154	0xbcae68e6	-0.021290254
155	0xbe531c50	-0.20616269
156	0xbef23bd1	-0.4731126
157	0x3c82ad7d	0.015951866
158	0x3d75d8db	0.060021263
159	0x3ca34f31	0.019935222
160	0xbd5630d3	-0.052292656
161	0x3e69c089	0.22827353
162	0x3ef4f6d4	0.47844565
163	0x3ea4a2f1	0.32155564
164	0x3dc26725	0.094923295
165	0x3d18c693	0.03729875
166	0xbf064c8b	-0.52460545
167	0xbeb17543	-0.34659776
168	0x3ed0291c	0.40656364
169	0x3e967925	0.293893
170	0x3e64270d	0.22280522
171	0xbf13b67c	-0.57700324
172	0xbddc8b9a	-0.107688144
173	0x3e00e0b4	0.12585717
174	0x3edc9deb	0.43089232
175	0x3e696900	0.2279396
176	0xbdefba73	-0.11705484
177	0x3e92633a	0.2859133
178	0x3e885d92	0.26633888
179	0x3e12ea8c	0.14347285
180	0xbf0a4944	-0.54018044
181	0xbe1e4f63	-0.15459971
182	0xbdfa4941	-0.12221003
183	0x3e370504	0.17873007
184	0x3deb029e	0.114751086
185	0xbd394c98	-0.04523906
186	0x3eb33e29	0.35008362
187	0x3e2392ff	0.15974043
188	0x3e2fa4d8	0.17152727
189	0xbeabdce8	-0.33566976
190	0xbee828b7	-0.45343563
191	0xbef14ec4	-0.47130406
192	0x3ee31704	0.44353497
193	0x3e8b4041	0.2719746
194	0x3f167855	0.5877736
195	0xbe7f1dee	-0.24913761
196	0xbdc7b455	-0.097511925
197	0x3e696f5a	0.22796384
198	0xbe994276	-0.29933518
199	0xbec8e2d5	-0.3923556
200	0x3ef517b8	0.47869658
201	0x3f1390ef	0.57643026
202	0xbdfcb1f5	-0.1233863
203	0x3e68b88a	0.22726646
204	0xbeb1489c	-0.3462571
205	0x3e1435e1	0.14473678
206	0xbeb56844	-0.3543111
207	0x3ea65d10	0.32492876
208	0xbe5180ea	-0.20459333
209	0x3da10c3d	0.078636624
210	0xbf6eb134	-0.9323914
211	0xbe5122b3	-0.20423393
212	0xbf55b4ba	-0.8347889
213	0xbd25113d	-0.040299643
214	0xbf3f98d1	-0.74842554
215	0x3d15a016	0.036529623
216	0x3db512ee	0.08841501
217	0xbf0afa5c	-0.5428827
218	0x3f57e8ac	0.84339404
219	0x3f007c71	0.5018988
220	0x3f836691	1.0265676
221	0x3e563007	0.20916758
222	0x3d157d69	0.036496554
223	0xbd48e7a0	-0.04904902
224	0xbf0eae27	-0.55734485
225	0xbe82f16a	-0.2557481
226	0xbf64f7d2	-0.89440644
227	0x3d5a5661	0.053305034
228	0x3ef156f6	0.47136658
229	0x3d6ab33f	0.05729985
230	0xbdca7fb7	-0.09887641
231	0xbe18955e	-0.14900729
232	0xbbb958c0	-0.005656332
233	0x3d56469b	0.05231343
234	0xbe959baa	-0.29220325
235	0x3ea53aae	0.32271332
236	0xbe88eb73	-0.26742133
237	0x3ce545ee	0.027987447
238	0x3d03bec8	0.032164365
239	0x3e8f9d7f	0.28049847
240	0xbf13439e	-0.5752505
241	0xbdfaa849	-0.12239129
242	0xbf844336	-1.0333011
243	0xbe84fd67	-0.2597458
244	0xbe98d1c2	-0.29847533
245	0xbe1bf92b	-0.15231769
246	0xbd90cae8	-0.07069951
247	0x3d09c382	0.033633716
248	0x3e407fbd	0.18798728
249	0x3eedbfb9	0.46435335
250	0xbd5a66d6	-0.05332073
251	0xbd892691	-0.06696809
252	0x3e3e62c8	0.1859237
253	0x3e81c277	0.25343677
254	0xbdd82ae1	-0.105550535
255	0xbddfb0fb	-0.10922428

layers.0.self_attn.in_proj_bias f4 [48]
0	0xbe260469	-0.1621262
1	0x3d7b9f63	0.0614313
2	0xbe15b772	-0.1462076
3	0xbd8c5220	-0.068516016
4	0x3e4481cf	0.19190143
5	0x3d47a58e	0.04874187
6	0x3d9fc3ea	0.078010395
7	0xbe3500b4	-0.1767605
8	0x3e8cf10a	0.27527648
9	0xbda1d332	-0.079016104
10	0xbc345956	-0.0110076275
11	0xbe7ee686	-0.24892625
12	0x3e6c3fae	0.23071167
13	0x3dd91e9b	0.10601541
14	0x3e942f65	0.2894241
15	0x3e61c023	0.2204595
16	0x3c145d7e	0.009055493
17	0x3bce93f4	0.0063042585
18	0x3ae3504c	0.0017342656
19	0xbc056ffa	-0.008144373
20	0xbb11b364	-0.002223217
21	0xbc86f68b	-0.016474983
22	0xbbe35038	-0.006937053
23	0x3c055e68	0.008140184
24	0x3b918a87	0.0044415626
25	0x3b967811	0.0045919497
26	0x3b618bc9	0.0034415594
27	0xbb73dde0	-0.0037211105
28	0x3c2ca94b	0.010538409
29	0x3b873b64	0.004126953
30	0xbb471421	-0.0030376988
31	0xbb45f6cc	-0.0030206917
32	0x3c037f5b	0.008025969
33	0x3d52e559	0.051488254
34	0xbc39fbb6	-0.0113515165
35	0x3d52d03e	0.051468126
36	0xbba59bd2	-0.0050539756
37	0xbd4b5df2	-0.04965014
38	0x3bf9bcde	0.0076213917
39	0xbd6e4a29	-0.058176193
40	0x3c970568	0.018435195
41	0x3ca257cc	0.019817255
42	0x3d4670ea	0.048447527
43	0x3d08e557	0.03342184
44	0xbc35ff91	-0.011108295
45	0x3db24847	0.08705192
46	0xbd518217	-0.051149454
47	0xbcbdef38	-0.023185357

layers.0.self_attn.out_proj.weight f4 [16, 16]
0	0x3c39917b	0.011326189
1	0x3d114ef8	0.0354757
2	0xbca9e330	-0.020738214
3	0xbc8f5e71	-0.017501088
4	0xbbf13a8d	-0.007361716
5	0xbc460ab0	-0.012087509
6	0xbc8aed8b	-0.016958972
7	0xbc9ef235	-0.019402603
8	0x3a8ec4ef	0.0010892431
9	0xbc083674	-0.008313764
10	0x3c54996a	0.01297603
11	0x3b1768ea	0.0023103305
12	0x3c3ce5c2	0.011529388
13	0xbca8eeb2	-0.020621631
14	0xbc7d3236	-0.015453866
15	0x3b872649	0.004124437
16	0x3c8c9ea8	0.017165497
17	0xbd0550c2	-0.03254772
18	0xbbf30039	-0.007415798
19	0x3c54c270	0.012985811
20	0x3c02cc19	0.007983231
21	0xbcf2ea64	-0.029652782
22	0x3c908552	0.017641697
23	0xbcc4a6a4	-0.024005242
24	0xbc8dbc83	-0.017301803
25	0x3c8dab4e	0.017293599
26	0x3ccd9bad	0.025098646
27	0x3b9889c1	0.0046550934
28	0x3ca7bbd6	0.02047531
29	0x3c3e524f	0.011616304
30	0xbb9a8f21	-0.0047167693
31	0x3d2cf81d	0.042228807
32	0x3b04fe08	0.0020293016
33	0xbd7a31c0	-0.0610826
34	0xbcb3c306	-0.02194358
35	0x3d0666b4	0.03281279
36	0x3d28b253	0.04118569
37	0xbc21b763	-0.009870383
38	0xbd0c3436	-0.03422948
39	0xbc913191	-0.01772383
40	0xbcef8457	-0.02923791
41	0x3c0b9bae	0.008521004
42	0xbbdde2b5	-0.0067714103
43	0xbd02c0ba	-0.03192208
44	0xbb17390b	-0.0023074772
45	0x3c63941a	0.013890291
46	0xba2de2d5	-0.0006633227
47	0x3d81289f	0.06306576
48	0xbc5f0961	-0.013613076
49	0x3ccf2cd9	0.02528994
50	0x3c9902eb	0.01867815
51	0x3b559cd5	0.00325947
52	0xbcedb538	-0.029017076
53	0x3a9447c2	0.0011312889
54	0x3afac9e4	0.0019133654
55	0x3d7cee96	0.06175097
56	0x3c9136a0	0.017726243
57	0x3c0cee56	0.008601746
58	0xba8b6368	-0.0010634484
59	0x3b26ac5b	0.0025432322
60	0x3be59026	0.007005709
61	0x3cfe13cb	0.031015297
62	0xbdade8ce	-0.084916696
63	0xbd4d2cde	-0.050091617
64	0x3e444d84	0.19170195
65	0x3d7a5aa9	0.061121617
66	0xbbed6465	-0.007244634
67	0x3d43a6ec	0.04776661
68	0xbccf7510	-0.025324374
69	0xbcd3cb78	-0.025853857
70	0x3c51766a	0.01278458
71	0xbd4c669f	-0.049902555
72	0x3b2e377a	0.002658336
73	0x3cdd3aec	0.027005635
74	0x3d1b6d87	0.03794625
75	0xbd215f64	-0.039397612
76	0xbd8ce5e7	-0.06879788
77	0x3e086f3c	0.13323683
78	0xbdad2341	-0.0845399
79	0x3e0bf2e5	0.13666876
80	0x3d91db5e	0.07121919
81	0xbd06e4c6	-0.03293302
82	0xbe5c0f2d	-0.21490164
83	0xbd8a81bc	-0.06763026
84	0x3c74cc76	0.014941325
85	0xbe618bde	-0.22026011
86	0x3c81f8bf	0.015865682
87	0xbd4a055b	-0.049321514
88	0x3df26f66	0.11837654
89	0x3e1dd2ea	0.15412489
90	0xbd6b5048	-0.05744961
91	0xbda856fb	-0.08219715
92	0x3c8bcb2a	0.01706465
93	0x3ddc10be	0.10745381
94	0x3ed605d3	0.4180132
95	0x3e10615f	0.14099644
96	0xbe11a535	-0.14223178
97	0x3c29fa9c	0.010374691
98	0xbde2a6ce	-0.11066972
99	0xbd9c36ed	-0.07627664
100	0xbca58bab	-0.0202082
101	0xbde5fadf	-0.112294905
102	0x3e136efc	0.14397806
103	0xbddc0ff7	-0.107452326
104	0x3c666f13	0.014064568
105	0x3e34b177	0.17645822
106	0x3cf2d834	0.02964411
107	0x3dcd5a8c	0.10027036
108	0xbcb36c54	-0.02190224
109	0xbdb14e7c	-0.08657548
110	0x3da8df94	0.08245769
111	0xbd754556	-0.059880577
112	0xbd18767e	-0.037222378
113	0xbdb7a0c0	-0.089662075
114	0xbea47763	-0.32122335
115	0x3e4dc0b9	0.20093049
116	0x3e1bc73d	0.15212722
117	0xbf10646b	-0.56403226
118	0x3d2f2069	0.042755518
119	0xba24aaa5	-0.00062815315
120	0x3e06a596	0.13149104
121	0x3eee8c63	0.46591482
122	0xbe43f744	-0.19137293
123	0x3ed24aa9	0.41072586
124	0x3e603278	0.21894252
125	0xbea485f5	-0.3213345
126	0x3eb4936a	0.35268718
127	0xbdf5fb80	-0.120108604
128	0x3e4b1f62	0.1983619
129	0xbcdc7393	-0.026910579
130	0xbbfc1026	-0.0076923547
131	0xbc952579	-0.018206345
132	0x3e8cc001	0.27490237
133	0x3ea47137	0.32117626
134	0xbd472f54	-0.04862912
135	0x3b87b852	0.0041418457
136	0xbc2031d5	-0.009777506
137	0xbe6c3134	-0.23065645
138	0xbdebac3f	-0.11507463
139	0xbe87416d	-0.26417103
140	0xbd42f2ab	-0.047594707
141	0xbe2acc13	-0.1667941
142	0x3e68f33c	0.22749037
143	0xbe25308a	-0.16131797
144	0x3e633dfc	0.22191614
145	0xbe043185	-0.12909515
146	0xbe4c6eb9	-0.19964112
147	0x3e3ece3e	0.18633363
148	0x3d6aa5d0	0.057287037
149	0x3e8b47a3	0.27203092
150	0xbd71faa3	-0.059076916
151	0x3d6b6536	0.05746957
152	0x3d8a0daf	0.06740891
153	0xbdd522da	-0.10407038
154	0x3c8896a5	0.016673395
155	0xbe696a40	-0.22794437
156	0x3da6d87e	0.08146761
157	0x3df1c153	0.11804452
158	0x3edd6e11	0.43248037
159	0x3df11f5b	0.11773559
160	0xbec74676	-0.38920945
161	0x3e6a7fb4	0.22900277
162	0x3e450735	0.1924103
163	0xbcb04f9b	-0.021522334
164	0x3bdaefbe	0.0066814115
165	0xbe2274c4	-0.15864855
166	0xbccfce25	-0.025366852
167	0xbbc87217	-0.006117116
168	0xbea592c1	-0.32338527
169	0x3e650351	0.22364546
170	0xbe518db5	-0.20464213
171	0x3eece76f	0.4627032
172	0xbe7ba997	-0.24576412
173	0xbe8aff03	-0.27147684
174	0x3bfc9a66	0.0077088354
175	0x3e21d6a1	0.1580453
176	0x3bf840f5	0.007576103
177	0x3e561ede	0.20910212
178	0x3d738997	0.059457388
179	0x3cab208b	0.020889541
180	0x3d1b067a	0.037847973
181	0xbda7f5b6	-0.082011625
182	0xbe3b3827	-0.18283139
183	0xbeb6be0e	-0.35691875
184	0xbe8fde68	-0.2809937
185	0xbe60bd96	-0.21947321
186	0x3e7ce38f	0.24696182
187	0x3d84ef3e	0.06490944
188	0xbe18b401	-0.14912416
189	0xbe61d66d	-0.22054453
190	0x3d19ba2e	0.03753107
191	0x3ed631fd	0.41835013
192	0xbdc3a61b	-0.095531665
193	0x3edc3a5c	0.43013275
194	0xbcf2372c	-0.029567324
195	0xbe07ff86	-0.13281068
196	0x3cef7e55	0.029235044
197	0xbb269fb4	-0.002542478
198	0x3d65e57f	0.056127068
199	0xbdbb8186	-0.09155564
200	0x3df09840	0.117477894
201	0x3e36e965	0.1786247
202	0xbdd82590	-0.105540395
203	0x3d83adb7	0.06429618
204	0xbe1a223a	-0.15052119
205	0xbe7297a9	-0.23690666
206	0x3e2b6523	0.167378
207	0x3c258039	0.010101371
208	0x3d9a9faa	0.07549985
209	0x3d1f4fea	0.03889457
210	0xbd9825f3	-0.07429113
211	0xbe1306d4	-0.14358073
212	0xbddda60d	-0.10822687
213	0x3dbfd046	0.09365897
214	0x3e9b2c29	0.3030713
215	0x3e00a533	0.12563019
216	0x3e385ffb	0.18005364
217	0x3dd89bac	0.10576567
218	0x3dd5055b	0.10401412
219	0xbdc25dc1	-0.094905384
220	0x3e59256c	0.21205682
221	0x3df62a8e	0.120198354
222	0x3e88ed82	0.26743704
223	0xbed55651	-0.41667417
224	0xbe000824	-0.12503105
225	0xbd10e285	-0.035372276
226	0x3e4a088e	0.19729826
227	0xbcb6cbb5	-0.022313932
228	0xbe39c2a7	-0.1814066
229	0x3c038749	0.00802786
230	0xbe0ef014	-0.1395877
231	0x3d82e0be	0.063905224
232	0x3da5cc53	0.080956124
233	0xbea10c71	-0.31454805
234	0xbd4e3565	-0.05034389
235	0x3c829d0d	0.015944028
236	0xbdcf1624	-0.10111645
237	0xbba0154c	-0.0048853513
238	0xbe1bed93	-0.15227346
239	0xbe69f284	-0.22846419
240	0xbe863ad3	-0.26216754
241	0x3d2d28c8	0.04227522
242	0x3e6be314	0.23035842
243	0xbe24b956	-0.16086325
244	0xbe44b326	-0.19208965
245	0xbd1a6035	-0.037689406
246	0x3de10491	0.10987199
247	0xbc4b76f2	-0.0124184955
248	0x3e089e64	0.13341671
249	0xbe79da5d	-0.24399705
250	0xbe572520	-0.21010256
251	0x3e12dfda	0.14343205
252	0xbe0be357	-0.13660942
253	0x3d3f9193	0.04676969
254	0xbe324d80	-0.17412376
255	0xbe82e888	-0.25568032

layers.0.self_attn.out_proj.bias f4 [16]
0	0xbb122edc	-0.0022305762
1	0xbbb23704	-0.0054386873
2	0x3b629a56	0.0034576855
3	0x39d35f8d	0.00040316247
4	0x3b049ee9	0.002023632
5	0xbc1fbf2f	-0.009750172
6	0x3cb81ce7	0.02247472
7	0xbcd9d592	-0.026591096
8	0x3b46a2ca	0.0030309432
9	0x3c25b2f1	0.010113464
10	0x3c19e6d7	0.009393415
11	0x3cc24c77	0.023718102
12	0xbc0d9622	-0.0086417515
13	0x3bfb2216	0.0076639755
14	0xbbcef3c4	-0.00631568
15	0xbbcb649c	-0.006207062

layers.0.linear1.weight f4 [16, 16]
0	0xbecf4177	-0.40479633
1	0xbd6d1633	-0.0578825
2	0xbe30f4c1	-0.17280866
3	0xbe065356	-0.13117728
4	0x3e5b79ad	0.21433134
5	0x3d33ef9e	0.04392969
6	0x3e16a93d	0.14712997
7	0xbdb05ae5	-0.08611087
8	0xbe494035	-0.196534
9	0xbe8a215a	-0.2697857
10	0x3e4e2488	0.20131123
11	0xbd00697f	-0.03135061
12	0x3e40768f	0.18795227
13	0x3e2449c3	0.16043763
14	0x3ec4e099	0.38452604
15	0xbe79fee0	-0.24413633
16	0xbe96fad0	-0.2948823
17	0x3e45c0b3	0.1931179
18	0x3d2e926a	0.0426201
19	0xbcb64829	-0.022251206
20	0x3f0b533f	0.544239
21	0xbe326bb3	-0.17423896
22	0xbd8c1370	-0.06839645
23	0xbe94c186	-0.29053897
24	0x3bf1dde3	0.0073811873
25	0xbdf394fb	-0.1189365
26	0xbe1c37b7	-0.15255629
27	0xbe590f13	-0.21197157
28	0x3dd1e7f5	0.102493204
29	0xbe855ce8	-0.26047444
30	0x3d27a59b	0.040929418
31	0xbdda072d	-0.106459
32	0x3d965a6d	0.07341466
33	0xbe2319bf	-0.1592779
34	0x3d448121	0.04797471
35	0x3dffa072	0.124817744
36	0x3a92b69e	0.001119334
37	0x3ebe1913	0.37128505
38	0x3e82a444	0.2551595
39	0x3db5e350	0.08881247
40	0x3edfbe92	0.4370008
41	0xbe31bc7c	-0.17357057
42	0x3d350c68	0.044201285
43	0xbe904bc1	-0.28182796
44	0xbea40b02	-0.32039648
45	0xbdf665b1	-0.12031115
46	0x3e8fa0a2	0.2805224
47	0xbe01584a	-0.12631336
48	0x3e2b97dd	0.1675715
49	0xbe27b3fd	-0.16377254
50	0x3da99b85	0.08281616
51	0x3e300073	0.17187671
52	0x3e0a2c1b	0.13493387
53	0x3d1e11de	0.03859126
54	0x3ec453d7	0.38345215
55	0x3f15d57a	0.58528864
56	0x3e5e5b9e	0.21714637
57	0xbdff72b6	-0.12473051
58	0x3e0b26d8	0.13589036
59	0xbebccbe9	-0.3687432
60	0xbe2a7f6f	-0.16650175
61	0xbd9f98c6	-0.07792811
62	0x3e95cce3	0.2925788
63	0x3d032e1e	0.032026403
64	0x3daecf51	0.08535636
65	0xbebd9a53	-0.37031803
66	0xbc6b5764	-0.014364097
67	0x3ec88b14	0.39168608
68	0xbe1f21ce	-0.15540239
69	0xbeccec8a	-0.40024215
70	0x3ea7e2e3	0.32790288
71	0xbe491135	-0.1963547
72	0x3f0204b7	0.50788444
73	0xbe536037	-0.20642172
74	0x3e445ebe	0.19176766
75	0xbe86dce6	-0.26340407
76	0xbcdb1f67	-0.026748372
77	0xbe24d051	-0.16095091
78	0x3e199886	0.1499959
79	0xbeba526d	-0.3639101
80	0xbe2910c0	-0.16510296
81	0xbe9c403f	-0.30517766
82	0x3e3e8778	0.18606365
83	0xbe53178d	-0.20614453
84	0x3e9a6d8e	0.3016171
85	0x3da04155	0.07824961
86	0xbd687042	-0.056747682
87	0xbd209bcd	-0.039211083
88	0x3e04d61b	0.129723
89	0xbd8586a5	-0.06519822
90	0x3e8f1f63	0.27953634
91	0xbdcb78b2	-0.0993513
92	0xbddb198c	-0.10698232
93	0xbc310fe2	-0.010807009
94	0x3eac28d7	0.33624908
95	0xbdea1bb2	-0.11431064
96	0x3deadec4	0.114682704
97	0xbe868b07	-0.26277944
98	0x3e76f810	0.24118066
99	0xbdfdc7b8	-0.12391609
100	0x3eabfb1c	0.3359002
101	0xbead10e3	-0.33801946
102	0x3d71ec32	0.059063144
103	0xbd123800	-0.035697937
104	0x3bfbf5a3	0.0076891943
105	0xbb1f1c84	-0.0024278471
106	0x3ebdf7d1	0.3710313
107	0x3d07424a	0.033022203
108	0x3eac6acd	0.33675233
109	0x3d9cba76	0.07652752
110	0xbe176743	-0.14785485
111	0xbe292013	-0.16516142
112	0xbe3bf2d2	-0.18354347
113	0xbeaeda56	-0.34150952
114	0xbe1d6f54	-0.153745
115	0xbdc30a00	-0.09523392
116	0x3ec73f62	0.38915545
117	0x3e094d9b	0.1340851
118	0x3d713d5b	0.058896404
119	0xbe22d335	-0.15900882
120	0xbe7fe7de	-0.24990794
121	0xbe405617	-0.1878284
122	0x3e9a7fe5	0.301757
123	0xbebfc3d7	-0.374541
124	0x3e41aa79	0.18912686
125	0xbe974848	-0.29547334
126	0x3c8979fc	0.0167818
127	0xbd90d165	-0.07071189
128	0x3dd214aa	0.102578476
129	0xbe880220	-0.2656412
130	0x3e001188	0.12506688
131	0x3da23239	0.079197355
132	0x3e611593	0.21980886
133	0x3e84149a	0.25796968
134	0x3dcf101a	0.10110493
135	0xbe16dd06	-0.14732751
136	0xbe9130af	-0.28357455
137	0xbe13354d	-0.14375801
138	0x3ddb4387	0.10706239
139	0x3e3700cd	0.17871399
140	0x3e76e3fc	0.24110407
141	0xbdc2773c	-0.094953984
142	0xbe7a9372	-0.24470308
143	0x3da37cc4	0.079827815
144	0x3e9706b8	0.29497313
145	0xbdc5b3bd	-0.09653423
146	0xbda1536e	-0.07877241
147	0x3e99e50c	0.3005756
148	0x3c7b4750	0.015336826
149	0xbe875800	-0.26434326
150	0xbe760d6f	-0.24028562
151	0xbe3b898b	-0.18314187
152	0x3e20f501	0.15718462
153	0xbd9fbaf7	-0.077993326
154	0x3d6adffd	0.057342518
155	0xbe024b9b	-0.12724154
156	0x3e92b770	0.28655577
157	0xbdf68961	-0.12037922
158	0x3d2cbbff	0.042171475
159	0xbe9a628f	-0.3015332
160	0x3dbb1a76	0.091359064
161	0x3c32a1cb	0.010902832
162	0x3e373f5a	0.1789526
163	0x3e553d9f	0.20824288
164	0x3d800318	0.0625059
165	0xbe797f8c	-0.24365062
166	0x3edeea30	0.43538046
167	0x3e0a9726	0.13534221
168	0xbea256f7	-0.31706974
169	0xbe8977aa	-0.2684911
170	0x3ebf6cc8	0.3738768
171	0x3dff252d	0.124582626
172	0xbaf20664	-0.0018465039
173	0xbee54e33	-0.44786224
174	0x3e7949e3	0.24344592
175	0xbcaef8bf	-0.021358846
176	0xbeaa7474	-0.33291972
177	0x3e6faf47	0.23406707
178	0x3e1a8a32	0.1509178
179	0x3ee3b9e0	0.4447775
180	0x3e893639	0.2679918
181	0x3d267274	0.040636495
182	0x3e6e36b4	0.23263055
183	0xbddf4626	-0.10902052
184	0xbd4c18d1	-0.049828354
185	0xbe727651	-0.23677947
186	0xbdcb67b4	-0.09931889
187	0xbe1e2a5a	-0.15445843
188	0xbdb0091a	-0.08595486
189	0xbceac79f	-0.02865964
190	0xbd9eed9a	-0.07760163
191	0xbe049ab5	-0.12949641
192	0xbe910f38	-0.28331923
193	0xbe889a46	-0.266802
194	0x3e0014a3	0.12507872
195	0x3e112f67	0.14178239
196	0x3e836472	0.2566257
197	0xbe84fb8c	-0.25973165
198	0x3e41fdf3	0.1894453
199	0xbd0c0716	-0.034186445
200	0x3c6a59b3	0.0143036125
201	0xbe24644c	-0.16053885
202	0x3e82ea27	0.2556927
203	0x3e7c07c5	0.24612339
204	0x3ecfccce	0.4058594
205	0xbeb5aa22	-0.35481364
206	0x3e9ab57d	0.3021659
207	0xbea8eb32	-0.3299194
208	0xbc4b9232	-0.012424992
209	0xbdfe7a95	-0.124257244
210	0xbe1a7767	-0.15084611
211	0x3def7f54	0.11694208
212	0xbde65664	-0.112469465
213	0xbe8741b6	-0.2641732
214	0x3e536b8b	0.20646493
215	0xbedfee0a	-0.43736297
216	0x3d8ed1ac	0.069735855
217	0x3e5ff1b1	0.21869542
218	0x3e585997	0.21127926
219	0x3e9dcb36	0.308191
220	0x3f241626	0.64096296
221	0xbab80c24	-0.0014041704
222	0xbe1a9e48	-0.15099442
223	0xbeaacd49	-0.33359745
224	0xbd043d26	-0.03228488
225	0x3d2af48b	0.04173712
226	0xbdbb6ab8	-0.09151214
227	0xbd707376	-0.058703862
228	0xbd3e7563	-0.046498667
229	0xbe378d3a	-0.17924967
230	0x3d307757	0.04308256
231	0xbe17b73f	-0.14815997
232	0xbe38409f	-0.17993401
233	0xbe6b2a59	-0.22965373
234	0xbd0a4f8e	-0.033767276
235	0x3e5a6cf3	0.21330623
236	0x3f147eaf	0.58005804
237	0xbe35d3ae	-0.1775653
238	0xbf0ce3c3	-0.55035037
239	0xbf0c5c30	-0.54828167
240	0xbde17661	-0.11008907
241	0x3cf7cfbf	0.030250428
242	0xbda20d9a	-0.079127505
243	0x3e284ed4	0.1643632
244	0x3e57377a	0.21017256
245	0xbdd5f7c2	-0.10447647
246	0x3f4d45df	0.8018474
247	0x3cfdab84	0.030965574
248	0xbe556f4a	-0.20843235
249	0xbf06d887	-0.52674145
250	0x3c981b9d	0.018567855
251	0x3e296ff0	0.16546607
252	0x3e55e81c	0.20889324
253	0x3de0a42c	0.10968813
254	0xbe03d39c	-0.12873691
255	0xbe9f1221	-0.3106852

layers.0.linear1.bias f4 [16]
0	0xbed17036	-0.40905923
1	0xbee0e9cb	-0.4392837
2	0xbdc85f0a	-0.09783752
3	0xbdfd9072	-0.123810664
4	0xbdd227f8	-0.1026153
5	0xbe638cd7	-0.22221695
6	0xbe3bfd45	-0.18358333
7	0xbdabd903	-0.08391001
8	0xbe8ecac0	-0.2788906
9	0xbeae34f1	-0.34024766
10	0xbe44b224	-0.1920858
11	0xbeae6106	-0.34058398
12	0x3c8ad128	0.016945437
13	0xbee708f9	-0.45124033
14	0xbe92f368	-0.2870133
15	0xbe926d7c	-0.28599155

layers.0.linear2.weight f4 [16, 16]
0	0x3dbf8ac7	0.093526416
1	0x3c755fd4	0.0149764605
2	0x3d78439f	0.060611364
3	0x3da73a91	0.081654675
4	0x3d7a7432	0.06114597
5	0xbda9872e	-0.082777366
6	0xbd2a72f4	-0.041613534
7	0xbd2ca5b5	-0.042150218
8	0x3d2609d5	0.04053672
9	0xbb36b6fd	-0.0027880066
10	0xbd0b1cb1	-0.03396291
11	0xbd02546c	-0.031818792
12	0xbdd6622c	-0.104679435
13	0x3d18a901	0.03727055
14	0xbc9a9964	-0.01887197
15	0x3d3ee0ee	0.04660123
16	0x3b23d368	0.0024997834
17	0x3dd7a5b6	0.10529654
18	0xbc784cc1	-0.015155018
19	0xbd8f4d5a	-0.069971755
20	0xbddb8920	-0.10719514
21	0xbc070919	-0.008241915
22	0x3c8e5698	0.017375275
23	0xbdd9d872	-0.10636987
24	0xbd04fc64	-0.03246726
25	0x3cbaa87b	0.022785416
26	0x3de226b8	0.11042541
27	0xbd41924d	-0.047258664
28	0xbdc909a8	-0.09816295
29	0xbe49035b	-0.19630186
30	0xbd44eea1	-0.048079137
31	0xbcbfd485	-0.023416767
32	0x3dbf184c	0.09330806
33	0xbdc8b024	-0.09799221
34	0xbd70b175	-0.058762986
35	0xbd81d300	-0.06339073
36	0x3e303d98	0.17210996
37	0xbd6b6574	-0.0574698
38	0xbd9de0f5	-0.07708923
39	0x3b25f0ff	0.0025320647
40	0xbd62f466	-0.055408858
41	0xbd903424	-0.07041195
42	0x3d5f8ef2	0.054579683
43	0xbe10b03d	-0.1412973
44	0x3e249c23	0.16075186
45	0xbe9f8fb8	-0.31164336
46	0xbe012379	-0.12611188
47	0x3dd5d307	0.10440641
48	0x3da3ee5f	0.0800445
49	0x3c5f8157	0.013641677
50	0x3d8ea169	0.0696438
51	0xbc03883a	-0.008028084
52	0x3d2161ba	0.03939984
53	0x3c18f9c2	0.009336891
54	0x3e6df052	0.23236206
55	0xbd46b4bb	-0.0485122
56	0xbd64e4a1	-0.0558821
57	0xbbd44f7c	-0.006479202
58	0xbdc7adac	-0.09749922
59	0xbdf4fb82	-0.11962034
60	0xbc6f430c	-0.014603388
61	0xbdacd658	-0.0843932
62	0x3cafba95	0.021451274
63	0x3db63b14	0.08897987
64	0xbe86613d	-0.26246062
65	0xbe53bfb4	-0.20678598
66	0x3e53847d	0.20656009
67	0x3d06367e	0.03276681
68	0xbcc3c928	-0.02389963
69	0xbc86888f	-0.016422538
70	0xbd4a4974	-0.049386457
71	0xbdf22a7c	-0.118245095
72	0xbe1d6fb1	-0.15374638
73	0xbe29e844	-0.16592509
74	0x3e983dbb	0.29734597
75	0xbe985197	-0.29749748
76	0xbd0c6093	-0.034271788
77	0xbe6b346a	-0.22969213
78	0x3e327694	0.17428046
79	0x3d9d284f	0.07673704
80	0x3d06672c	0.032813236
81	0xbe144911	-0.14480998
82	0xbd5f5cc2	-0.05453182
83	0x3c815972	0.015789721
84	0x3f3aad87	0.7292103
85	0xbe472e07	-0.19451152
86	0x3eb3c550	0.35111475
87	0x3e40bda6	0.18822345
88	0xbd1539b4	-0.036431983
89	0x3eca1a87	0.39473364
90	0x3e0e62ba	0.13904849
91	0x3e49b344	0.1969729
92	0x3e85bd67	0.26121065
93	0x3ea8b4a7	0.32950327
94	0xbe8be8a5	-0.2732593
95	0x3cae1937	0.021252258
96	0x3d741dc4	0.0595987
97	0xbe08a8da	-0.13345662
98	0xbe4e741d	-0.20161481
99	0xbd865b58	-0.06560391
100	0xbcd79d70	-0.02632019
101	0x3e9565b3	0.29179153
102	0xbe22ee16	-0.15911135
103	0xbdc3f81b	-0.09568807
104	0xbe7deed9	-0.24798144
105	0x3c4c3487	0.012463695
106	0xbdd4d46e	-0.1039208
107	0xbd13720a	-0.035997428
108	0x3ec10d5c	0.37705505
109	0x3f055c6d	0.52094156
110	0x3ef11958	0.47089648
111	0xbda8ad46	-0.08236174
112	0xbde59b83	-0.11211302
113	0x3ec5db2b	0.38643774
114	0xbd82d179	-0.0638761
115	0x3d1e4427	0.038639214
116	0x3ee10e97	0.43956444
117	0xbc66e9e1	-0.014093847
118	0xbe0c0ce5	-0.13676794
119	0x3e7c9f5d	0.24670167
120	0x3eccb0a1	0.39978507
121	0x3e30733d	0.1723146
122	0x3e1714ef	0.1475408
123	0x3ddf16e5	0.10893039
124	0xbc0caebd	-0.008586583
125	0x3e811042	0.25207716
126	0x3e1a33ee	0.15058872
127	0xbeeba302	-0.46022803
128	0x3da14cb5	0.07875959
129	0xbdc206a2	-0.09473921
130	0xbe83b6ff	-0.25725552
131	0xbe5e3bb7	-0.21702467
132	0xbd960b0d	-0.073263265
133	0xbe2cb6ac	-0.16866559
134	0x3dc0eaf4	0.09419814
135	0x3e8736ab	0.26408896
136	0x3ddd7e92	0.10815157
137	0xbc8bc6eb	-0.017062625
138	0xbe3dd129	-0.1853682
139	0x3ecda212	0.40162712
140	0xbda5eae8	-0.081014454
141	0x3c1cf932	0.009580897
142	0xbd569f0c	-0.052397773
143	0x3e99fb20	0.30074406
144	0xbe2dc708	-0.16970456
145	0xbb778268	-0.0037766937
146	0xbd2f1cd2	-0.042752095
147	0x3dcb02fa	0.09912677
148	0xbe5b6469	-0.21425022
149	0x3e97c90a	0.29645568
150	0x3e5226b9	0.20522584
151	0x3ec1ae27	0.3782818
152	0xbdd5ea0e	-0.10445033
153	0xbe144f60	-0.14483404
154	0x3e2ebc23	0.17063956
155	0x3c3da539	0.011575037
156	0x3e21fba7	0.15818654
157	0xbe88d740	-0.26726723
158	0x3e1e8246	0.15479383
159	0x3ebf3de7	0.37351915
160	0xbf22229e	-0.6333407
161	0x3e82f75c	0.25579345
162	0x3ebe45d4	0.3716265
163	0x3eae6f2d	0.34069195
164	0xbedd4fd7	-0.43224975
165	0xbf004d11	-0.50117594
166	0xbcc52560	-0.024065673
167	0xbecfb44b	-0.4056724
168	0x3eb64ea1	0.35606864
169	0xbe890593	-0.26762065
170	0xbd815f34	-0.06316987
171	0x3e89a6d3	0.2688509
172	0xbf27e8a7	-0.65589374
173	0x3dbe9a11	0.093067296
174	0x3d26ce7b	0.04072426
175	0xbf1519ac	-0.582423
176	0x3edfe273	0.43727455
177	0x3de6c3f9	0.112678476
178	0x3eec9bd0	0.46212626
179	0x3eb2b8ce	0.3490662
180	0xbd4ab85b	-0.04949222
181	0x3e3e7a0a	0.18601242
182	0x3e7f966c	0.24959725
183	0x3d51caf9	0.05121896
184	0xbe521f33	-0.20519714
185	0x3d939dbe	0.07207821
186	0xbceab4ce	-0.028650668
187	0xbda3819d	-0.07983706
188	0xbf13a982	-0.57680523
189	0xbf2440b4	-0.6416123
190	0xbe8942d5	-0.268088
191	0x3e24236f	0.16029142
192	0x3e17237f	0.14759634
193	0xbe5231a5	-0.2052675
194	0x3dfe61e4	0.12421015
195	0x3dbe5525	0.09293584
196	0x3eec0d15	0.4610373
197	0xbd55326b	-0.052050035
198	0xbdc9682f	-0.098343246
199	0xbe8e2091	-0.2775922
200	0x3dab2a18	0.08357638
201	0xbea44f70	-0.32091856
202	0xbeb5c4fa	-0.35501844
203	0xbd299577	-0.041402306
204	0xbd2dc04d	-0.04241972
205	0x3ee80172	0.45313603
206	0x3ee54846	0.44781703
207	0xbf04236c	-0.5161655
208	0xbb1962a4	-0.0023404742
209	0x3e7aaa50	0.24479032
210	0x3d0ca259	0.034334514
211	0x3e400104	0.18750387
212	0xbf437c5f	-0.7636165
213	0x3d71456b	0.058904093
214	0xbe3c8308	-0.1840936
215	0xbe350206	-0.17676553
216	0x3e74d9c0	0.2391119
217	0xbdd49669	-0.10380251
218	0x3e098acc	0.13431853
219	0xbe5a3779	-0.21310224
220	0xbc0ccb0d	-0.008593333
221	0x3ea89c42	0.32931715
222	0x3e69d15d	0.22833772
223	0xbc1116cd	-0.008855534
224	0xbe9aed60	-0.30259228
225	0x3d8ab783	0.06773283
226	0xbda69991	-0.08134759
227	0xbe09186e	-0.13388225
228	0xbdc122dd	-0.09430478
229	0xbe69c5e6	-0.22829399
230	0x3ed36c50	0.41293573
231	0x3efc6ed2	0.493033
232	0x3e09ec88	0.13469136
233	0x3e6d047d	0.23146243
234	0xbecff4bc	-0.40616405
235	0x3ebd386d	0.36957112
236	0xbeb0674b	-0.34453806
237	0x3ec6d4c4	0.38834202
238	0xbefc02ac	-0.49220788
239	0x3e5670ef	0.20941518
240	0x3e04f8f4	0.12985593
241	0xbe6629dc	-0.22476906
242	0xbeb59a42	-0.35469252
243	0xbe938a70	-0.28816557
244	0x3d02e974	0.03196092
245	0x3ecffa63	0.40620717
246	0xbc905168	-0.017616943
247	0x3d5abe9d	0.05340444
248	0xbebede48	-0.37278962
249	0x3d0ac62d	0.0338804
250	0xbec8b73e	-0.39202303
251	0x3eaf03e7	0.34182665
252	0x3e361e45	0.17784984
253	0xbcdde982	-0.027088884
254	0xbe7327cc	-0.2374565
255	0x3e0bce39	0.13652886

layers.0.linear2.bias f4 [16]
0	0xbc1fd49e	-0.009755282
1	0x3c139024	0.009006534
2	0x3b8e6756	0.0043458147
3	0xbc4da6a5	-0.012551938
4	0x3cf1705b	0.02947252
5	0xbd0d3931	-0.03447837
6	0x3d1ece7b	0.038771134
7	0xbca0aac1	-0.019612672
8	0xbce0b614	-0.027430572
9	0xbd4282e3	-0.047488105
10	0x3c5d1780	0.013494372
11	0xbd150712	-0.036383696
12	0x3c0b54ad	0.008504075
13	0xbcdcf1ce	-0.02697077
14	0xbc92f113	-0.017937219
15	0xbbf6fb7e	-0.0075373044

layers.0.norm1.weight f4 [16]
0	0x3fbddf6e	1.483381
1	0x3fa5d638	1.2955999
2	0x3fb9e722	1.4523661
3	0x3f89e2a6	1.0772293
4	0x3fa13df1	1.2597028
5	0x3f3fcf00	0.7492523
6	0x3f57ff9e	0.84374416
7	0x3f060c2c	0.5236232
8	0x3f47541c	0.77862716
9	0x3f6d1c60	0.9262142
10	0x3f2fcb12	0.68669236
11	0x3f1ac7aa	0.60460913
12	0x3f46bf7a	0.7763592
13	0x3f490c84	0.7853472
14	0x3f3a936d	0.72881204
15	0x3f6a12f2	0.9143516

layers.0.norm1.bias f4 [16]
0	0xbc871be8	-0.016492799
1	0x3e00549b	0.12532274
2	0x3d46d2f0	0.04854101
3	0x3db1ae31	0.086758025
4	0x3e698ba3	0.22807173
5	0x3db60194	0.0888702
6	0x3e55e519	0.20888175
7	0x3aa4414d	0.0012531668
8	0x3dc44351	0.09583152
9	0xbe15e2e4	-0.14637333
10	0xbdeb80a9	-0.11499149
11	0xbe812d92	-0.2523008
12	0xbe20315c	-0.15643829
13	0xbe764d37	-0.24052893
14	0x3d92c71d	0.07166884
15	0xbd96e083	-0.07367041

layers.0.norm2.weight f4 [16]
0	0x3fa198c0	1.2624741
1	0x3fa9644b	1.3233732
2	0x3faa596b	1.3308538
3	0x3f99a0e4	1.2002225
4	0x3f8a0573	1.0782913
5	0x3f67bb37	0.9052004
6	0x3f6976ab	0.911967
7	0x3f7a3aac	0.97745776
8	0x3f69fd81	0.9140244
9	0x3f816f1a	1.011203
10	0x3f600f9e	0.8752383
11	0x3f6e1d44	0.93013406
12	0x3f4f9de9	0.81100327
13	0x3f633bee	0.8876332
14	0x3f704bb3	0.9386551
15	0x3f61d815	0.8822034

layers.0.norm2.bias f4 [16]
0	0x3d0b9eab	0.034086864
1	0xbce5bd09	-0.02804424
2	0xbe04ef40	-0.12981892
3	0x3d29bbee	0.04143899
4	0x3e3c6428	0.18397582
5	0xbd2c457c	-0.042058453
6	0x3e914f09	0.28380612
7	0x3cae56c8	0.021281615
8	0xbc2672cd	-0.010159207
9	0xbe653956	-0.22385153
10	0x3de85c83	0.1134577
11	0xbdb3414e	-0.0875269
12	0x3d04d27f	0.032427307
13	0xbd775801	-0.06038666
14	0x3d3f2824	0.04666914
15	0xbe5d1d76	-0.2159327

layers.1.self_attn.in_proj_weight f4 [48, 16]
0	0x3eb9aa12	0.36262566
1	0x3da7453e	0.08167504
2	0xbe5f7812	-0.21823147
3	0xbe27a847	-0.16372786
4	0xbe752df6	-0.23943314
5	0xbea98e5c	-0.33116424
6	0xbe26b042	-0.16278175
7	0x3de9388a	0.11387737
8	0x3f0ce92f	0.5504331
9	0x3dbc0caf	0.09182107
10	0x3f02d835	0.51111156
11	0x3ec92c32	0.3929153
12	0x3eb1709f	0.34656236
13	0xbed5023a	-0.4160326
14	0x3e203a0f	0.15647148
15	0x3e44b0cc	0.19208068
16	0xbda11635	-0.07865564
17	0x3ed308e4	0.4121772
18	0x3f4ac6db	0.7920968
19	0x3da2ecc9	0.079553194
20	0xbe01aa6a	-0.12662664
21	0x3dded1b5	0.10879842
22	0xbe1a6544	-0.15077692
23	0xbf43963b	-0.7640111
24	0xbe8a71b7	-0.27039883
25	0xbdf63957	-0.120226555
26	0xbef4400a	-0.47705108
27	0x3da08bf1	0.07839192
28	0xbf09e22e	-0.5386075
29	0xbea61f32	-0.32445675
30	0xbf622ddc	-0.88351226
31	0xbd9dc09a	-0.077027515
32	0xbdead0be	-0.11465596
33	0x3e37c033	0.17944412
34	0xbef9faa9	-0.4882405
35	0xbd13772e	-0.03600233
36	0x3efa6af2	0.48909718
37	0xbd3ab66a	-0.04558412
38	0x3ed88393	0.42287883
39	0x3f049a91	0.5179835
40	0xbe5dc28f	-0.2165625
41	0xbef94250	-0.48683405
42	0xbe4f5e1b	-0.20250742
43	0xbeff8753	-0.49907932
44	0x3ebdac39	0.37045458
45	0x3ed072f3	0.407127
46	0xbe6d60f2	-0.23181513
47	0x3ecdf466	0.40225524
48	0xbe374a57	-0.17899452
49	0xbcebfcd0	-0.028807074
50	0xbe7060b7	-0.23474394
51	0xbe61f15a	-0.22064725
52	0xbe10c5e7	-0.14137994
53	0xbde33bdf	-0.11095404
54	0xbe96229d	-0.29323283
55	0x3cd8deee	0.026473489
56	0xbec53e82	-0.38524252
57	0xbf21c3cc	-0.6318939
58	0x3e75d12a	0.24005571
59	0xbe403651	-0.1877072
60	0x3e31381e	0.17306563
61	0xbf00f4ea	-0.5037371
62	0x3f353c3a	0.70795023
63	0x3ec6c004	0.3881837
64	0x3f7a24ce	0.9771241
65	0x3e195bfe	0.14976498
66	0x3f0192dc	0.50614715
67	0xbec88b7b	-0.39168915
68	0xbec80ca7	-0.39072153
69	0x3d73ac5d	0.05949055
70	0xbec805fb	-0.39067063
71	0x3d8173cb	0.06320914
72	0xbf14c89f	-0.58118623
73	0xbe9a65be	-0.30155748
74	0xbcccc4f8	-0.024996266
75	0xbe467007	-0.19378673
76	0x3d678875	0.05652662
77	0x3e3b9ffa	0.18322745
78	0xbee72851	-0.45147946
79	0xbe1d8fbb	-0.1538686
80	0x3da633b8	0.08115333
81	0xbf17b560	-0.5926113
82	0xbd81a1c3	-0.06329682
83	0x3c71d2d1	0.014759735
84	0x3da1a51c	0.0789282
85	0xbe9a61d1	-0.30152753
86	0x3ea1b6f4	0.31584895
87	0x3df8e7e2	0.12153603
88	0xbeb3d93c	-0.35126674
89	0x3e847d5b	0.2587689
90	0x3e7c60b3	0.24646263
91	0x3df1ed82	0.11812879
92	0x3d94e8fb	0.07271
93	0x3d7bf4b1	0.061512653
94	0xbea6ca99	-0.32576445
95	0x3e3dbe77	0.18529688
96	0xbe9072d4	-0.28212607
97	0x3dfa1813	0.12211623
98	0xbacc9f15	-0.0015611375
99	0x3eee5944	0.4655248
100	0xbe0ff779	-0.14059247
101	0x3e1ceb9c	0.15324253
102	0xbeae232d	-0.34011212
103	0x3e1bdce9	0.1522099
104	0xbe3bb8db	-0.18332236
105	0x3e97002e	0.29492325
106	0x3e114396	0.14185938
107	0xbc8d4285	-0.017243633
108	0x3e093b42	0.13401511
109	0xbe82abfd	-0.25521842
110	0xbe60b657	-0.21944557
111	0xbe1d9080	-0.15387154
112	0x3c440162	0.01196322
113	0xbe351290	-0.17682862
114	0xbf0462b9	-0.5171314
115	0x3cd10aca	0.02551784
116	0xbe739fd5	-0.2379144
117	0x3eb4f614	0.35343993
118	0xbded06d0	-0.11573565
119	0x3e8cb020	0.27478123
120	0x3e8f8b73	0.2803608
121	0xbc363e1e	-0.011123208
122	0xbd8c4c6e	-0.06850515
123	0x3dfde192	0.1239654
124	0xbe9630b2	-0.29334027
125	0x3aebdab9	0.0017994262
126	0x3e481d3e	0.19542405
127	0x3ea8a532	0.32938534
128	0x3e0f0ccf	0.1396973
129	0x3e85c93d	0.26130095
130	0xbef75c20	-0.48312473
131	0xbe685f57	-0.2269262
132	0xbe7ecb02	-0.24882129
133	0xbe6dc1f5	-0.2321852
134	0xbc46fc25	-0.012145077
135	0xbb9d7fb1	-0.004806482
136	0x3d59dbfe	0.053188317
137	0x3d7c50a5	0.061600346
138	0xbc8e3223	-0.017357891
139	0xbe790669	-0.24318852
140	0xbcb67502	-0.02227259
141	0xbc98a2da	-0.018632341
142	0x3df8a35f	0.121405356
143	0xbdbfed50	-0.09371436
144	0xbde83d96	-0.113398716
145	0x3e7aa5c8	0.24477303
146	0x3e5f1be5	0.21787985
147	0xbde2ced2	-0.11074604
148	0xbcf30458	-0.029665157
149	0x3e811db8	0.25217986
150	0x3dd9d5c2	0.10636474
151	0xbe5bd21d	-0.2146687
152	0x3ea8e29b	0.32985386
153	0xbea5847b	-0.32327637
154	0x3e070871	0.13186814
155	0x3d66f58f	0.056386527
156	0xbd5810ee	-0.05275052
157	0xbc1b87dc	-0.009492841
158	0xbe4f9590	-0.20271897
159	0xbeb892ff	-0.3604965
160	0x3ead1554	0.33805335
161	0xbead5189	-0.3385127
162	0x3e99a79f	0.30010697
163	0xbeb2022f	-0.3476729
164	0x3e54a965	0.20767744
165	0xbe69993f	-0.22812365
166	0x3e0f8c47	0.14018355
167	0x3e0ec932	0.13943937
168	0x3d210334	0.039309695
169	0x3cf15742	0.029460553
170	0xbe0ee1b3	-0.13953285
171	0xbe011aa4	-0.12607819
172	0xbe8867ec	-0.26641786
173	0x3d8ae571	0.06782044
174	0xbec87d02	-0.39157873
175	0x3ec6a2c8	0.38796067
176	0x3dc9c306	0.09851651
177	0xbe8ca571	-0.27469972
178	0xbe63b351	-0.22236373
179	0x3ec72214	0.38893187
180	0x3f560ec2	0.8361627
181	0xbe498b41	-0.19682027
182	0x3f2439eb	0.64150876
183	0x3eb8b06a	0.36072093
184	0x3eaa8f91	0.33312657
185	0x3be08184	0.006851377
186	0x3db1a0ca	0.08673246
187	0x3e6d795e	0.23190829
188	0xbdb5cea4	-0.08877304
189	0xbe4a4e16	-0.1975635
190	0x3eed6ed4	0.46373618
191	0x3e990348	0.29885316
192	0x3f0341a4	0.51272035
193	0x3e4da2f8	0.20081699
194	0xbe80471d	-0.25054255
195	0xbd5164e1	-0.051121596
196	0xbe39a047	-0.18127547
197	0xbe088ed4	-0.13335735
198	0x3cf3b20b	0.029747983
199	0x3dfd5c4c	0.1237112
200	0xbf28fa28	-0.6600671
201	0xbdfaebac	-0.12251982
202	0xbe126387	-0.14295779
203	0x3edb6e62	0.42857653
204	0xbf17dc6e	-0.59320724
205	0x3d509466	0.050922774
206	0xbe0cddd1	-0.13756491
207	0xbe148ffb	-0.14508049
208	0xbd1a0a71	-0.037607614
209	0xbd5f3a48	-0.05449894
210	0xbc9b2e1d	-0.018942887
211	0x3eb891a8	0.36048627
212	0xbea375b1	-0.3192573
213	0xbf3ed316	-0.7454084
214	0xbed8c3a0	-0.4233675
215	0x3eaee313	0.3415762
216	0x3e1c84e5	0.1528507
217	0xbe2d179b	-0.16903536
218	0x3f0dee44	0.5544169
219	0x3e56e2cb	0.20984952
220	0x3e1a50eb	0.1506993
221	0xbd087867	-0.03331795
222	0xbbdf10d4	-0.006807426
223	0xbd9ec1ee	-0.07751833
224	0x3d1184dd	0.0355271
225	0x3e9b9a34	0.30391085
226	0x3b3a0298	0.0028382894
227	0x3e4f48fb	0.20242684
228	0x3ebaed46	0.3650915
229	0x3efdee70	0.49595976
230	0x3d03e12b	0.03219716
231	0x3ee0c51a	0.43900377
232	0xbeb0d801	-0.34539798
233	0xbf10353c	-0.5633123
234	0xbd7d2817	-0.06180581
235	0xbf474440	-0.77838516
236	0x3e182269	0.14856876
237	0xbdff8eea	-0.124784306
238	0xbc83b1cd	-0.016075993
239	0x3e760e95	0.24029
240	0xbdf931c1	-0.12167693
241	0x3ece85c5	0.40336433
242	0xbe2558e6	-0.16147193
243	0xbec3e70f	-0.3826222
244	0x3d4fb442	0.050709017
245	0x3cfb092a	0.030644018
246	0xbdc42ad8	-0.09578484
247	0xbe870615	-0.26371828
248	0x3e6ad70e	0.229336
249	0x3e380a00	0.17972565
250	0x3e93d8c7	0.28876325
251	0x3e911cd3	0.28342304
252	0xbec9993f	-0.3937473
253	0x3d37b448	0.044849664
254	0x3ef2034e	0.47268146
255	0x3c1cf8f0	0.009580836

layers.1.self_attn.in_proj_bias f4 [48]
0	0xbe036447	-0.12831222
1	0xbe045fcb	-0.12927167
2	0xbd0a759e	-0.033803575
3	0xbe572770	-0.21011138
4	0x3e8ba9ec	0.27278078
5	0x3c2e8f3c	0.010654267
6	0xbd85b375	-0.06528369
7	0x3e982696	0.2971694
8	0xbbfc4de5	-0.0076997154
9	0xbe9f2fc7	-0.3109114
10	0x3d27fccb	0.041012567
11	0x3bc69338	0.0060600303
12	0x3e83661a	0.25663835
13	0x3da93382	0.082617775
14	0x3e0b8ee6	0.1362873
15	0x3e32f621	0.17476703
16	0xbb7de1a5	-0.003873923
17	0x3b7c742e	0.0038521397
18	0x3a6da79b	0.00090658077
19	0x3bed60c7	0.007244203
20	0x3cc94ce9	0.024572806
21	0xbc92efa0	-0.017936528
22	0xbbbf84d3	-0.0058446913
23	0xbc4dd285	-0.012562399
24	0x3cc431a2	0.023949448
25	0x3c509ef2	0.012733208
26	0xbc32089f	-0.010866313
27	0xbc1c06ca	-0.009523103
28	0x3b124083	0.0022316284
29	0x3c2fba89	0.010725626
30	0x3c3bd7a8	0.011464991
31	0x3c6e5347	0.014546222
32	0x3d947ef7	0.07250779
33	0xbe10f452	-0.14155701
34	0xbc9892fc	-0.018624775
35	0xba8e8f4e	-0.0010876448
36	0x3df881fd	0.12134168
37	0x3d58c078	0.052917928
38	0xbe10201d	-0.1407475
39	0x3c196b2c	0.009363931
40	0x3dbe252e	0.09284435
41	0xb95ecd96	-0.00021248157
42	0xbdba3fea	-0.09094222
43	0xbd8c1f0a	-0.06841858
44	0xbd5e7ea1	-0.05431998
45	0x3d067549	0.032826696
46	0xbcf9df71	-0.030502053
47	0x3d1e30fe	0.03862094
